pts/model/rgat/dnri-debug/3f8e26md/checkpoints/epoch=0-step=100.ckpt (torch, 525901 bytes, 151 tensors)

model.encoder.edge2node_mat f4 [8, 56]
0	0x00000000	0.0
1	0x00000000	0.0
2	0x00000000	0.0
3	0x00000000	0.0
4	0x00000000	0.0
5	0x00000000	0.0
6	0x00000000	0.0
7	0x3f800000	1.0
8	0x00000000	0.0
9	0x00000000	0.0
10	0x00000000	0.0
11	0x00000000	0.0
12	0x00000000	0.0
13	0x00000000	0.0
14	0x3f800000	1.0
15	0x00000000	0.0
16	0x00000000	0.0
17	0x00000000	0.0
18	0x00000000	0.0
19	0x00000000	0.0
20	0x00000000	0.0
21	0x3f800000	1.0
22	0x00000000	0.0
23	0x00000000	0.0
24	0x00000000	0.0
25	0x00000000	0.0
26	0x00000000	0.0
27	0x00000000	0.0
28	0x3f800000	1.0
29	0x00000000	0.0
30	0x00000000	0.0
31	0x00000000	0.0
32	0x00000000	0.0
33	0x00000000	0.0
34	0x00000000	0.0
35	0x3f800000	1.0
36	0x00000000	0.0
37	0x00000000	0.0
38	0x00000000	0.0
39	0x00000000	0.0
40	0x00000000	0.0
41	0x00000000	0.0
42	0x3f800000	1.0
43	0x00000000	0.0
44	0x00000000	0.0
45	0x00000000	0.0
46	0x00000000	0.0
47	0x00000000	0.0
48	0x00000000	0.0
49	0x3f800000	1.0
50	0x00000000	0.0
51	0x00000000	0.0
52	0x00000000	0.0
53	0x00000000	0.0
54	0x00000000	0.0
55	0x00000000	0.0
56	0x3f800000	1.0
57	0x00000000	0.0
58	0x00000000	0.0
59	0x00000000	0.0
60	0x00000000	0.0
61	0x00000000	0.0
62	0x00000000	0.0
63	0x00000000	0.0
64	0x00000000	0.0
65	0x00000000	0.0
66	0x00000000	0.0
67	0x00000000	0.0
68	0x00000000	0.0
69	0x00000000	0.0
70	0x00000000	0.0
71	0x3f800000	1.0
72	0x00000000	0.0
73	0x00000000	0.0
74	0x00000000	0.0
75	0x00000000	0.0
76	0x00000000	0.0
77	0x00000000	0.0
78	0x3f800000	1.0
79	0x00000000	0.0
80	0x00000000	0.0
81	0x00000000	0.0
82	0x00000000	0.0
83	0x00000000	0.0
84	0x00000000	0.0
85	0x3f800000	1.0
86	0x00000000	0.0
87	0x00000000	0.0
88	0x00000000	0.0
89	0x00000000	0.0
90	0x00000000	0.0
91	0x00000000	0.0
92	0x3f800000	1.0
93	0x00000000	0.0
94	0x00000000	0.0
95	0x00000000	0.0
96	0x00000000	0.0
97	0x00000000	0.0
98	0x00000000	0.0
99	0x3f800000	1.0
100	0x00000000	0.0
101	0x00000000	0.0
102	0x00000000	0.0
103	0x00000000	0.0
104	0x00000000	0.0
105	0x00000000	0.0
106	0x3f800000	1.0
107	0x00000000	0.0
108	0x00000000	0.0
109	0x00000000	0.0
110	0x00000000	0.0
111	0x00000000	0.0
112	0x00000000	0.0
113	0x3f800000	1.0
114	0x00000000	0.0
115	0x00000000	0.0
116	0x00000000	0.0
117	0x00000000	0.0
118	0x00000000	0.0
119	0x00000000	0.0
120	0x3f800000	1.0
121	0x00000000	0.0
122	0x00000000	0.0
123	0x00000000	0.0
124	0x00000000	0.0
125	0x00000000	0.0
126	0x00000000	0.0
127	0x00000000	0.0
128	0x00000000	0.0
129	0x00000000	0.0
130	0x00000000	0.0
131	0x00000000	0.0
132	0x00000000	0.0
133	0x00000000	0.0
134	0x00000000	0.0
135	0x3f800000	1.0
136	0x00000000	0.0
137	0x00000000	0.0
138	0x00000000	0.0
139	0x00000000	0.0
140	0x00000000	0.0
141	0x00000000	0.0
142	0x3f800000	1.0
143	0x00000000	0.0
144	0x00000000	0.0
145	0x00000000	0.0
146	0x00000000	0.0
147	0x00000000	0.0
148	0x00000000	0.0
149	0x3f800000	1.0
150	0x00000000	0.0
151	0x00000000	0.0
152	0x00000000	0.0
153	0x00000000	0.0
154	0x00000000	0.0
155	0x00000000	0.0
156	0x3f800000	1.0
157	0x00000000	0.0
158	0x00000000	0.0
159	0x00000000	0.0
160	0x00000000	0.0
161	0x00000000	0.0
162	0x00000000	0.0
163	0x3f800000	1.0
164	0x00000000	0.0
165	0x00000000	0.0
166	0x00000000	0.0
167	0x00000000	0.0
168	0x00000000	0.0
169	0x00000000	0.0
170	0x3f800000	1.0
171	0x00000000	0.0
172	0x00000000	0.0
173	0x00000000	0.0
174	0x00000000	0.0
175	0x00000000	0.0
176	0x00000000	0.0
177	0x3f800000	1.0
178	0x00000000	0.0
179	0x00000000	0.0
180	0x00000000	0.0
181	0x00000000	0.0
182	0x00000000	0.0
183	0x00000000	0.0
184	0x3f800000	1.0
185	0x00000000	0.0
186	0x00000000	0.0
187	0x00000000	0.0
188	0x00000000	0.0
189	0x00000000	0.0
190	0x00000000	0.0
191	0x00000000	0.0
192	0x00000000	0.0
193	0x00000000	0.0
194	0x00000000	0.0
195	0x00000000	0.0
196	0x00000000	0.0
197	0x00000000	0.0
198	0x00000000	0.0
199	0x3f800000	1.0
200	0x00000000	0.0
201	0x00000000	0.0
202	0x00000000	0.0
203	0x00000000	0.0
204	0x00000000	0.0
205	0x00000000	0.0
206	0x3f800000	1.0
207	0x00000000	0.0
208	0x00000000	0.0
209	0x00000000	0.0
210	0x00000000	0.0
211	0x00000000	0.0
212	0x00000000	0.0
213	0x3f800000	1.0
214	0x00000000	0.0
215	0x00000000	0.0
216	0x00000000	0.0
217	0x00000000	0.0
218	0x00000000	0.0
219	0x00000000	0.0
220	0x3f800000	1.0
221	0x00000000	0.0
222	0x00000000	0.0
223	0x00000000	0.0
224	0x00000000	0.0
225	0x00000000	0.0
226	0x00000000	0.0
227	0x3f800000	1.0
228	0x00000000	0.0
229	0x00000000	0.0
230	0x00000000	0.0
231	0x00000000	0.0
232	0x00000000	0.0
233	0x00000000	0.0
234	0x3f800000	1.0
235	0x00000000	0.0
236	0x00000000	0.0
237	0x00000000	0.0
238	0x00000000	0.0
239	0x00000000	0.0
240	0x00000000	0.0
241	0x3f800000	1.0
242	0x00000000	0.0
243	0x00000000	0.0
244	0x00000000	0.0
245	0x00000000	0.0
246	0x00000000	0.0
247	0x00000000	0.0
248	0x3f800000	1.0
249	0x00000000	0.0
250	0x00000000	0.0
251	0x00000000	0.0
252	0x00000000	0.0
253	0x00000000	0.0
254	0x00000000	0.0
255	0x00000000	0.0

model.encoder.mlp_in._model.0.weight f4 [30, 13]
0	0xbb081564	-0.0020764703
1	0x3e185a7d	0.14878269
2	0xbe69c00b	-0.22827165
3	0xbe5102f0	-0.20411277
4	0xbddac5cf	-0.1068226
5	0x3d98511e	0.07437347
6	0xbbb410f9	-0.0054951874
7	0x3e612f8e	0.21990797
8	0xbcc9a18f	-0.02461317
9	0x3d964daa	0.07339032
10	0xbdaba934	-0.08381882
11	0xbd5f4dab	-0.05451743
12	0xbe87a9a0	-0.264966
13	0xbe3c17a9	-0.183684
14	0xbdea25e9	-0.11433012
15	0x3c285470	0.010274038
16	0x3de08e37	0.10964625
17	0x3e2a690e	0.16641638
18	0xbe408a28	-0.18802702
19	0xbdf7593b	-0.12077566
20	0x3dce4fe2	0.1007383
21	0x3e6bd5e8	0.23030818
22	0xbd69cb5b	-0.0570787
23	0x3e548681	0.20754434
24	0xbd371bc6	-0.04470422
25	0x3cf06a46	0.02934755
26	0x3e8094a0	0.25113392
27	0xbe83bb72	-0.25728947
28	0xbe32caf9	-0.1746024
29	0xbd8fcd18	-0.070215404
30	0xbddd6954	-0.10811105
31	0x3e7561c0	0.2396307
32	0xbe381655	-0.17977269
33	0xbe02bccf	-0.12767337
34	0xbe466b1e	-0.193768
35	0xbe84fea5	-0.25975528
36	0xbe25c93d	-0.16190048
37	0x3e7421a5	0.2384096
38	0x3dfd7535	0.12375871
39	0x3e09a670	0.13442397
40	0x3c6efb45	0.0145862745
41	0xbe119aff	-0.14219283
42	0x3d4032bd	0.046923388
43	0xbe849673	-0.25896034
44	0xbe4d36a9	-0.20040382
45	0xbe1269f3	-0.14298229
46	0x3e3330c3	0.1749907
47	0x3e2684e0	0.16261625
48	0xbdfbe934	-0.12300339
49	0xbc23f64d	-0.010007453
50	0x3e35a3af	0.17738222
51	0x3e8d2b8e	0.27572292
52	0x3de16f2a	0.11007531
53	0x3d197810	0.037468016
54	0x3e3e6c27	0.18595944
55	0xbe273944	-0.16330439
56	0x3d53b111	0.051682536
57	0xbe5c311a	-0.21503106
58	0xbe44d74a	-0.19222751
59	0xbe12b68d	-0.1432745
60	0x3e00815a	0.12549344
61	0x3de46eae	0.11153923
62	0xbe283b62	-0.16428903
63	0x3dab99cb	0.08378943
64	0x3e1be960	0.15225744
65	0xbd0f62df	-0.0350064
66	0x3c2d803b	0.010589655
67	0x3d839c7d	0.06426332
68	0x3e3030e4	0.1720615
69	0x3e8859c6	0.26630992
70	0xbe5adcb3	-0.21373253
71	0xbdd028da	-0.10164042
72	0x3ddf3c17	0.10900133
73	0x3e6b503c	0.22979826
74	0x3e772500	0.24135208
75	0x3e7a9856	0.24472174
76	0x3d6215f0	0.055196702
77	0xbe76f796	-0.24117884
78	0x3cd10301	0.025514128
79	0xbe31ad0d	-0.1735117
80	0xbe84572c	-0.25847757
81	0x3e7c566f	0.24642347
82	0x3e57f276	0.21088585
83	0xbe8da6f7	-0.27666447
84	0x3d54a1e0	0.05191219
85	0xbd3f5ffd	-0.0467224
86	0xbd3af21d	-0.045641053
87	0xbe020185	-0.12695892
88	0x3dda6ed3	0.10665669
89	0xbe2837d2	-0.16427544
90	0x3dd03a88	0.10167414
91	0x3e0f9fd8	0.1402582
92	0x3e4b4feb	0.19854705
93	0x3dd462ea	0.10370429
94	0xbe8c8bae	-0.27450317
95	0xbe383bf0	-0.17991614
96	0x3e0dcf08	0.13848507
97	0x3d6dc593	0.05804975
98	0xbe5d8c87	-0.21635638
99	0xbe238957	-0.1597036
100	0x3e8596e7	0.26091692
101	0x3e3f5e60	0.18688345
102	0xbdf7aaff	-0.12093162
103	0xbd8ef5d2	-0.0698048
104	0xbe8745a3	-0.26420316
105	0xbba35a4b	-0.004985129
106	0xbe55dfa6	-0.20886096
107	0xbe5b1200	-0.21393585
108	0xbc7a60db	-0.015281881
109	0x3d2a9195	0.041642744
110	0xbde89e58	-0.11358327
111	0x3e2885e9	0.16457333
112	0xbe2cd43d	-0.16877837
113	0x3e80d979	0.25165918
114	0x3e42a12f	0.19006799
115	0xbe6f7f72	-0.2338846
116	0xbd8d5e99	-0.06902809
117	0x3c4d0aba	0.012514764
118	0x3d25bf57	0.04046568
119	0x3d86b7d3	0.065780304
120	0x3ddee784	0.10884002
121	0x3c8818a6	0.016613316
122	0xbe0a932f	-0.13532709
123	0x3e066385	0.13123901
124	0xbe88376a	-0.26604778
125	0xbe285522	-0.16438726
126	0xbd8e30cc	-0.06942901
127	0xbe0a57e6	-0.13510093
128	0xbdc6b5bc	-0.09702632
129	0xbe68c724	-0.22732216
130	0xbd71a662	-0.058996566
131	0x3d72d537	0.05928537
132	0xbe390540	-0.18068409
133	0xbc693355	-0.01423343
134	0x3e4b4e69	0.1985413
135	0xbce99149	-0.02851166
136	0x3bfc94d9	0.0077081737
137	0xbcc401e7	-0.023926688
138	0x3d65e917	0.056130495
139	0x3e349521	0.17635013
140	0x3e868315	0.26271883
141	0x3e345c29	0.17613281
142	0x3e86d1df	0.26331994
143	0xbca4518d	-0.020058418
144	0xbe7f2110	-0.24914956
145	0xbe06a419	-0.13148536
146	0x3e4161ab	0.18884914
147	0xbaeba815	-0.001797917
148	0xbe0d2a16	-0.13785586
149	0xbe59a335	-0.21253665
150	0xbe84e4df	-0.25955865
151	0xbe6fb42d	-0.23408575
152	0xbd666d86	-0.056256793
153	0x3e1bc039	0.15210046
154	0x3e198bab	0.14994685
155	0xbe88f3d5	-0.2674853
156	0x3e31287d	0.17300601
157	0xbe5e3cde	-0.21702906
158	0xbd702ae6	-0.05863466
159	0xbde65051	-0.11245788
160	0xbd5ad0e2	-0.053421862
161	0xbd5f0ce8	-0.054455668
162	0xbe7eda6d	-0.2488801
163	0xbe7538d3	-0.23947458
164	0xbd31c3c7	-0.0433996
165	0x3b6b0f8b	0.0035867419
166	0xbe01045c	-0.12599319
167	0x3dd5f855	0.10447756
168	0xbe7f9f58	-0.24963129
169	0xbc9955a3	-0.018717593
170	0x3e79c2c6	0.24390706
171	0xbde7b01e	-0.113128886
172	0x3e803ab8	0.250448
173	0x3dcdb543	0.100443386
174	0xbe802703	-0.25029764
175	0x3e33b0ae	0.17547867
176	0xbd031754	-0.03200467
177	0xbdfd909d	-0.123810984
178	0x3e631b53	0.22178392
179	0xbe658119	-0.22412528
180	0x3cf3cd69	0.029761033
181	0xbd6dd92a	-0.058068432
182	0x3e4ad009	0.19805922
183	0x3d9e8ec7	0.07742076
184	0x3e087776	0.1332682
185	0x3dc89950	0.09794867
186	0xbd8897bf	-0.06669568
187	0xbd6ee997	-0.058328237
188	0xbe6a0b63	-0.22855906
189	0x3e19e323	0.15028052
190	0x3e617eb4	0.2202099
191	0x3e425306	0.18976983
192	0xbe4854ff	-0.19563673
193	0x3c4aaaa2	0.012369784
194	0xbe4834b4	-0.19551355
195	0xbe1c5751	-0.15267684
196	0xbe257dfd	-0.16161342
197	0x3dc21d99	0.094783016
198	0xbe293e43	-0.16527657
199	0xbbc64781	-0.0060510044
200	0x3c3f2974	0.011667598
201	0x3e3713bf	0.17878626
202	0xbe56afab	-0.2096545
203	0xbe42f954	-0.19040424
204	0xbe24e962	-0.16104653
205	0x3e46c920	0.1941266
206	0xbdcc2e49	-0.09969766
207	0x3e6f8e68	0.23394167
208	0x3dcd65d6	0.10029189
209	0x3d0fd9b7	0.03511974
210	0xbb074e41	-0.0020646008
211	0xbd609246	-0.054826997
212	0x3d0e8875	0.034798104
213	0xbd81b3e7	-0.06333142
214	0xbaff6e47	-0.0019487821
215	0x3d10f2f2	0.03538794
216	0xbe5e26be	-0.21694466
217	0xbe14db53	-0.1453679
218	0x3e65554c	0.2239582
219	0xbe667c0a	-0.22508255
220	0xbca325bc	-0.019915454
221	0x3e8c79a1	0.27436545
222	0x3dcd2ff6	0.100189134
223	0x3c00a84b	0.007852624
224	0xbe761f73	-0.24035434
225	0x3e0cb0c7	0.1373931
226	0xbe4a4ad8	-0.19755113
227	0xbda13d14	-0.07872978
228	0xbdbe93e0	-0.09305549
229	0xbd283b2a	-0.04107205
230	0x3b46d1a0	0.0030337349
231	0x3e6a402e	0.22876045
232	0x3d0dd1f6	0.034624062
233	0x3e7e61f1	0.24842049
234	0x3e2dbaf6	0.16965851
235	0xbe338d89	-0.1753446
236	0x3dfec193	0.12439265
237	0xbe48c359	-0.19605769
238	0xbdf0bcfa	-0.117547944
239	0x3da710c6	0.08157496
240	0x3dbb8dac	0.09157881
241	0x3e5511d4	0.20807582
242	0xbdb6da37	-0.0892834
243	0x39e8c88d	0.0004439991
244	0x3e123697	0.14278637
245	0xbe89548a	-0.2682231
246	0x3e4d54c9	0.20051874
247	0xbe6ad9f2	-0.22934702
248	0x3b7a8438	0.0038225781
249	0xbd4124ba	-0.047154166
250	0xbe15941b	-0.14607279
251	0x3d162655	0.03665765
252	0x3e6ad9ad	0.22934599
253	0xbda60a92	-0.08107485
254	0xbe289cec	-0.16466111
255	0xbdd212c2	-0.10257484

model.encoder.mlp_in._model.0.bias f4 [30]
0	0x3d02896e	0.031869344
1	0xbd87a6bf	-0.06623601
2	0xbe2018e6	-0.15634498
3	0xbe1f5c5a	-0.15562573
4	0xbe5a899d	-0.21341558
5	0x3e3ea985	0.18619354
6	0x3e49e8b9	0.19717683
7	0xbd014b4f	-0.03156596
8	0xbe2459c0	-0.16049862
9	0x3e5b829b	0.21436541
10	0x3e359e78	0.17736232
11	0x3ca8e40a	0.02061655
12	0xbe0616e9	-0.13094677
13	0x3e8281fe	0.254898
14	0x3de8489b	0.113419734
15	0xbe579a2b	-0.21054904
16	0x3e87e8ac	0.26544702
17	0x3e57aac6	0.21061239
18	0xbdcf091a	-0.10109158
19	0x3e1fa7d2	0.15591362
20	0xbe215e8f	-0.15758727
21	0xbd320813	-0.04346473
22	0x3e712677	0.2354983
23	0x3c3bc229	0.011459866
24	0xbe48dac4	-0.19614702
25	0xbdbdd941	-0.092699535
26	0xbd9a2f33	-0.07528534
27	0xbd5b2c10	-0.05350882
28	0x3cd96fd1	0.026542576
29	0x3e83542d	0.2565016

model.encoder.mlp_in._model.2.weight f4 [30, 30]
0	0x3c2027ae	0.009775085
1	0xbde6de41	-0.1127286
2	0x3c195111	0.009357707
3	0x3db34936	0.08754198
4	0x3db979b1	0.09056414
5	0xbe2addc3	-0.16686158
6	0xbd05d143	-0.03267027
7	0xbe0aef70	-0.135679
8	0xbd9f8af7	-0.07790177
9	0x3d86b7cf	0.065780275
10	0xbe04c359	-0.12965144
11	0x3d8afe3c	0.067867726
12	0x3e1eaf23	0.15496497
13	0x3c4431b4	0.011974741
14	0xbdf9352c	-0.12168345
15	0xbd85f78e	-0.06541358
16	0x3d234c43	0.03986765
17	0xbe0e8518	-0.13917959
18	0x3db9c368	0.09070474
19	0xbe29bb4c	-0.16575354
20	0xbe33b833	-0.17550735
21	0xbe35a862	-0.17740014
22	0xbd17b4bf	-0.037037607
23	0x3dfb6e41	0.12276889
24	0xbe30f32c	-0.17280263
25	0x3e1b6538	0.1517533
26	0xbd9592c5	-0.07303385
27	0x3d5b0696	0.053473078
28	0x3c08696c	0.008325916
29	0xbe2894ee	-0.16463062
30	0x3e1b0c4a	0.15141407
31	0x3dc95497	0.09830587
32	0x3e39d55b	0.18147795
33	0x3dbce7a5	0.0922387
34	0xbdf6cec3	-0.120511554
35	0x3e1c07c9	0.15237345
36	0x3c20c3f7	0.009812347
37	0x3db150b0	0.08657968
38	0xbe15e820	-0.1463933
39	0xbd57180e	-0.052513175
40	0xbe379160	-0.1792655
41	0xbd91a2ca	-0.07111128
42	0x3d215432	0.039386936
43	0xbe12ca69	-0.14335026
44	0x3d6e6126	0.058198117
45	0x3dc8b7ee	0.09800707
46	0x3cd05b8d	0.02543428
47	0xbdfa2da2	-0.12215735
48	0xbe10f35d	-0.14155336
49	0xbd66b752	-0.05632717
50	0x3da421b7	0.08014243
51	0x3e3869a6	0.18009052
52	0x3dd7029d	0.10498545
53	0xbca86c7e	-0.020559546
54	0x3d831984	0.06401351
55	0xbe376a62	-0.17911676
56	0xbe1fade9	-0.15593685
57	0x3dae7864	0.085190564
58	0xbdd3ca16	-0.10341279
59	0x3db3e32d	0.08783565
60	0xbe03fa6d	-0.12888499
61	0xbdb933e1	-0.09043098
62	0xbe19fe5a	-0.15038434
63	0x3dc31f59	0.095274635
64	0xbc986630	-0.018603414
65	0x3e0fe1ab	0.14050929
66	0x3de76758	0.11299008
67	0x3dcee6c2	0.10102607
68	0x3bc06079	0.0058708754
69	0xbd6735ef	-0.05644792
70	0xbd2299c0	-0.03969741
71	0x3cc6c5c1	0.024264218
72	0x3db95a0a	0.09050377
73	0xbe02fabe	-0.12790963
74	0x3e1ce873	0.15323047
75	0xbca29f34	-0.019851305
76	0xbe1ca8af	-0.15298723
77	0xbdca4ed7	-0.09878319
78	0x3e256c05	0.16154487
79	0x3e2af9ef	0.16696905
80	0xbe2d2c6b	-0.16911475
81	0x3e03dc17	0.12876926
82	0x3dbb63b0	0.09149873
83	0x3ddd534c	0.10806903
84	0x3e1e4381	0.15455438
85	0xbdc9851c	-0.09839842
86	0x3d6c2507	0.0576525
87	0x3d990466	0.07471542
88	0xbd5cfa1c	-0.05394946
89	0x3d7a42f8	0.061099023
90	0xbd5728b1	-0.05252904
91	0x3de72ce0	0.11287856
92	0xbd4f7cb8	-0.05065605
93	0xbd8b648c	-0.06806287
94	0x3d3c4391	0.045962874
95	0x3d849fcb	0.064757906
96	0xbdb6aeca	-0.08920057
97	0x3c843678	0.016139254
98	0x3dd8b200	0.10580826
99	0xbc94cfe2	-0.018165532
100	0x3d639692	0.055563517
101	0xbd345d89	-0.044034515
102	0x3d830e55	0.06399218
103	0xbe076e08	-0.13225567
104	0xbddbdef8	-0.10735887
105	0xbdbdcb4e	-0.09267293
106	0x3e2bd087	0.16778766
107	0xbd493a3e	-0.04912781
108	0xba02ad6f	-0.000498495
109	0xbdb5289e	-0.08845638
110	0x3e3aa2e3	0.18226199
111	0x3e369825	0.17831476
112	0xbe0cffec	-0.13769501
113	0xbe178f40	-0.1480074
114	0xbe0db618	-0.13838995
115	0xba66d1c5	-0.0008805062
116	0xbd3e9f8c	-0.046538875
117	0xbdf4be10	-0.11950314
118	0xbd861c9e	-0.06548427
119	0x3d0d497a	0.0344939
120	0xbdc35d93	-0.09539332
121	0x3d25b467	0.04045525
122	0xbd2b7ce6	-0.04186716
123	0xbdb52f1c	-0.08846876
124	0x3ccd7af4	0.025083043
125	0x3e19b9e0	0.15012312
126	0xbdfccb4a	-0.12343462
127	0x3c0ae626	0.008477723
128	0xbd89e2fc	-0.06732747
129	0x3e377608	0.17916119
130	0xbe316080	-0.17321968
131	0xbe333a39	-0.17502679
132	0x3e38393d	0.17990585
133	0xbdec9200	-0.11551285
134	0x3d0f6013	0.035003733
135	0xbc811561	-0.015757265
136	0xbd1d88ca	-0.03846053
137	0xbd270659	-0.040777538
138	0x3ded994c	0.11601505
139	0x3c0ef98f	0.008726492
140	0xbe3605e7	-0.17775689
141	0xbddcbe22	-0.107784525
142	0xbd7eeef2	-0.062239595
143	0x3dbc289b	0.091874324
144	0xbdf1f894	-0.11814991
145	0x3e3048d1	0.17215277
146	0xbd268ff3	-0.040664624
147	0xbd0647de	-0.03278338
148	0x3e127da8	0.14305747
149	0x3dbbee57	0.09176319
150	0x3e1e8fa8	0.15484488
151	0x3dd84989	0.10560901
152	0xbd62daf4	-0.05538459
153	0xbdf8148b	-0.12113293
154	0xbc5e8fbe	-0.0135840755
155	0x3e1abb56	0.15110525
156	0xbd7afc08	-0.061275512
157	0xbe2d609a	-0.16931382
158	0x3d9946f2	0.07484235
159	0x3e35ff0c	0.17773074
160	0xbd54e496	-0.05197581
161	0xbe1acdcf	-0.15117572
162	0xbe299489	-0.16560568
163	0x3d3b6779	0.045752976
164	0xbc628002	-0.013824465
165	0xbdbcd21d	-0.092197634
166	0x3d1728b6	0.03690406
167	0x3d8dff11	0.06933416
168	0x3e14b08b	0.14520471
169	0x3e112637	0.14174734
170	0xbcdfdfc5	-0.027328381
171	0xbe24da04	-0.16098791
172	0xbe28f00f	-0.16497825
173	0x3e2e8f10	0.17046762
174	0x3da54a2b	0.08070787
175	0x3da2fdb0	0.07958543
176	0xbe21c21b	-0.15796702
177	0x3e2d1fc9	0.16906656
178	0x3e311c88	0.1729604
179	0x3e28cb8d	0.16483898
180	0xbe1db697	-0.15401684
181	0xbd8d15f1	-0.068889506
182	0xbe0094e0	-0.12556791
183	0x3e310a76	0.17289147
184	0xbda0a998	-0.078448474
185	0xbdaab610	-0.08335507
186	0x3dc3e5b4	0.09565297
187	0xbdacf803	-0.08445742
188	0xbdb828ef	-0.089921825
189	0xbc82d397	-0.015970035
190	0xbc8fc2cd	-0.017548943
191	0xbe11a27a	-0.14222136
192	0x3e1bdbf6	0.15220627
193	0xbda4f0cf	-0.08053743
194	0x3d84a1d3	0.06476178
195	0x3e229c7a	0.15880004
196	0x3dbc91e7	0.09207516
197	0x3cd3c0ec	0.025848828
198	0x3e1f12a3	0.15534453
199	0x3cc90de6	0.02454276
200	0xbdacfe2a	-0.084469154
201	0x3e30dc39	0.17271508
202	0x3d30fece	0.04321175
203	0xbe3668cb	-0.17813413
204	0xbd54e62f	-0.051977333
205	0xbdfeb257	-0.124363594
206	0x3e23ea09	0.16007246
207	0xbcf70003	-0.030151373
208	0xbe2a6a3e	-0.1664209
209	0xbc3c0af8	-0.0114772245
210	0x3dead24f	0.114658944
211	0x3d4248f3	0.04743285
212	0x3d6c7718	0.057730764
213	0x3c8ae7d6	0.016956251
214	0x3d8b66c0	0.068067074
215	0xbd363572	-0.044484563
216	0xbd94be04	-0.07262805
217	0xbe2ebfd4	-0.17065364
218	0xbe0cd740	-0.13753986
219	0x3da20dec	0.07912812
220	0xbddd65f4	-0.10810462
221	0x3cd69347	0.026193274
222	0x3d6eb2f1	0.05827612
223	0x3c53cb9a	0.01292696
224	0xbdf26cfb	-0.118371926
225	0x3e32ca92	0.17460087
226	0xbdd96df9	-0.10616679
227	0x3e19c57a	0.15016738
228	0xbe14b99b	-0.14523928
229	0xbd33e34d	-0.043917943
230	0x3dcb657c	0.09931466
231	0xbd98c5ef	-0.07459628
232	0x3e1d0d11	0.15337016
233	0xbe00a7ab	-0.1256396
234	0xbe1d0013	-0.1533206
235	0xbda89aa3	-0.082326196
236	0x3cf1c5a7	0.029513193
237	0x3e2c240b	0.16810624
238	0xbdb28182	-0.08716108
239	0x3d85b8b2	0.065293685
240	0xbd3b7c15	-0.04577263
241	0xbd222cc1	-0.039593462
242	0x3e097828	0.13424742
243	0xbe10e364	-0.14149243
244	0x3c9edb94	0.019391812
245	0x3e2fd0ab	0.17169444
246	0xbccd852e	-0.02508792
247	0x3e1128e4	0.14175755
248	0xbd664c26	-0.056224965
249	0x3e167e13	0.14696531
250	0xbe34d922	-0.17660955
251	0xbcd78ee9	-0.026313262
252	0xbd035a43	-0.032068502
253	0x3d725bc6	0.059169553
254	0x3d92b227	0.07162886
255	0x3e0f8c46	0.14018354

model.encoder.mlp_in._model.2.bias f4 [30]
0	0xbc3a7ee0	-0.011382788
1	0x3d05ae00	0.032636642
2	0xbce366b1	-0.027758928
3	0xbe02acf8	-0.12761295
4	0xbe2eb27e	-0.17060277
5	0x3df5ecc2	0.120080486
6	0xbcb1e329	-0.021714764
7	0xbd8addba	-0.06780572
8	0xbd410652	-0.04712517
9	0xbdcbf0af	-0.09958016
10	0xbd5d7e33	-0.05407543
11	0xbe207c56	-0.1567243
12	0x3e0be845	0.13662823
13	0x3d98af23	0.0745528
14	0xbdbc9262	-0.09207608
15	0xbd7f3e00	-0.062314987
16	0x3da7c03b	0.08190962
17	0xbd8a762c	-0.06760821
18	0x3d453249	0.04814366
19	0x3d4de82e	0.050270252
20	0xbdeb6002	-0.114929214
21	0x3d3b54bd	0.04573511
22	0x3c37051a	0.01117065
23	0x3e2348c9	0.15945734
24	0xbd8749ef	-0.066058986
25	0xbd403df2	-0.046934076
26	0x3e2114d5	0.15730603
27	0xbe18ab2f	-0.14909051
28	0x3c581dd2	0.0131907035
29	0x3e3421eb	0.17591064

model.encoder.mlp_edge_list.0._model.0.weight f4 [30, 60]
0	0xbd6d17d4	-0.057884052
1	0x3dfd78ae	0.123765334
2	0x3dea9be9	0.11455519
3	0x3df5fa50	0.12010634
4	0xbc49d5ec	-0.012319069
5	0x3def2e5e	0.11678766
6	0xbd666795	-0.056251127
7	0xbd35020d	-0.04419141
8	0x3d480191	0.04882962
9	0x3cdf6950	0.027271897
10	0x3d91c140	0.07116938
11	0x3dfb42a3	0.12268569
12	0xbda58240	-0.08081484
13	0x3d8c5263	0.068516515
14	0x3d30ea33	0.0431921
15	0x3d8b7c99	0.068108745
16	0x3d7abcfc	0.061215386
17	0xbd45ce10	-0.04829222
18	0xbdd0f77a	-0.102034524
19	0x3dd39e46	0.10332923
20	0xbd96c490	-0.0736171
21	0x3da9090b	0.08253678
22	0xbdfbdff4	-0.12298575
23	0xbcb6f6dc	-0.022334509
24	0x3ab358ed	0.0013683118
25	0x3cb6fc9b	0.022337249
26	0x3c2af91a	0.010435367
27	0x3d26a01e	0.040680043
28	0xbc6b831e	-0.0143745225
29	0x3d0180da	0.031617023
30	0x3e02d227	0.1277548
31	0xbdab13e8	-0.08353406
32	0xbbe6f662	-0.007048414
33	0xbd49da12	-0.049280234
34	0x3de7fd14	0.11327568
35	0x3de2554f	0.110514276
36	0xbb66b741	-0.0035204443
37	0xbd374bdb	-0.044750076
38	0xbda35c73	-0.07976618
39	0x3dbd2f81	0.09237576
40	0xbc11a870	-0.008890256
41	0x3df902a7	0.12158709
42	0x3d96c658	0.0736205
43	0x3de76d3e	0.11300133
44	0x3dd11de4	0.10210779
45	0xbdabd0c3	-0.083894275
46	0x3d1ac744	0.03778769
47	0xbd5b449e	-0.053532235
48	0x3d84a950	0.06477606
49	0xbc3e2c90	-0.011607304
50	0x3c371c13	0.011176127
51	0xbdb6dbbe	-0.08928631
52	0xbdec4c14	-0.11537948
53	0x3d4720e6	0.04861536
54	0x3cf5c44b	0.030000826
55	0x3c37baac	0.01121394
56	0x3db3937b	0.08768364
57	0xbd5ccf4a	-0.053908624
58	0x3d3bb5f6	0.04582783
59	0xbd919e75	-0.071103014
60	0x3cdb218d	0.026749397
61	0xbcf171d0	-0.029473215
62	0x3db929d0	0.09041178
63	0x3de7359a	0.112895206
64	0x3de5a247	0.112125926
65	0x3bbe4c52	0.005807438
66	0x3d9be98c	0.07612905
67	0xbe04157c	-0.1289882
68	0xbd9b17cd	-0.07572899
69	0x3cbd03bb	0.023073068
70	0x3a3cbd46	0.0007199835
71	0xbdcf91e3	-0.101352476
72	0xbd6a0c96	-0.05714091
73	0xbd76f963	-0.060296427
74	0xbe02fa03	-0.12790684
75	0x3c49b996	0.012312314
76	0x3db43ca8	0.08800632
77	0x3d569df7	0.05239674
78	0xbd7b3f05	-0.061339397
79	0xbdf2c90c	-0.11854753
80	0xbdd54eef	-0.10415446
81	0x3b1cf043	0.0023946918
82	0x3db5e19c	0.08880922
83	0xbd56255e	-0.05228173
84	0xbd8fde9c	-0.07024881
85	0xbd8d0b27	-0.06886893
86	0xbc371b6d	-0.011175972
87	0xbdfb15a7	-0.12259989
88	0xbde95083	-0.113923095
89	0x3e022262	0.12708429
90	0xbd7c3068	-0.0615696
91	0xbcbebfdd	-0.023284847
92	0xbd0d7ac5	-0.03454091
93	0xbde845f2	-0.11341466
94	0xbcba71cf	-0.022759346
95	0x3d21df32	0.039519496
96	0xbd56b840	-0.05242181
97	0xbbb44bc3	-0.0055021956
98	0xba21e2fd	-0.00061754865
99	0xbe039a84	-0.12851912
100	0x3dc02402	0.09381868
101	0x3dd59255	0.10428301
102	0x3db44434	0.08802071
103	0xbd2da779	-0.042396042
104	0x3d8a29d8	0.06746262
105	0xbdf7b7de	-0.12095617
106	0xbd02d0e1	-0.031937484
107	0xbcd7187f	-0.026256798
108	0xbd3abe13	-0.045591425
109	0x3d5e17a7	0.054221775
110	0xbd70f2aa	-0.058825172
111	0xbc7527e3	-0.014963123
112	0xbd18b0b7	-0.037277903
113	0xbdf84a1a	-0.12123509
114	0xbcaea65d	-0.021319563
115	0xbde011ad	-0.109408714
116	0x3d9a2b92	0.07527842
117	0x3d8d4f47	0.068998866
118	0x3df7af0a	0.12093933
119	0xbd3191d1	-0.043351952
120	0x3bd71f1d	0.0065649883
121	0x3ccf2baa	0.025289375
122	0x3e03f65b	0.12886946
123	0x3df2593f	0.118334286
124	0xbd88d5d0	-0.066814065
125	0xbde0f998	-0.10985106
126	0xbdee4bf5	-0.116355814
127	0xbd7ea506	-0.062169097
128	0x3dde4ce2	0.10854508
129	0x3d319829	0.043358
130	0x3dff1a5e	0.12456201
131	0x3dc3f9bf	0.0956912
132	0x3af551b7	0.001871637
133	0xbda3ddae	-0.080012664
134	0x3e01175d	0.12606569
135	0x3dd41731	0.10355986
136	0x3d64efbe	0.0558927
137	0xbd906e00	-0.07052231
138	0x3dd04912	0.10170187
139	0x3c408385	0.011750107
140	0x3daed3cf	0.08536493
141	0x3d5cb32d	0.053881813
142	0x3d8c6574	0.06855288
143	0xbde80037	-0.11328166
144	0xbd929a38	-0.07158321
145	0x3d9e93b5	0.07743017
146	0xbcdc5519	-0.026896046
147	0xbde604d5	-0.112313904
148	0x3df070f4	0.11740294
149	0xbb36f758	-0.0027918424
150	0x3dd548a2	0.10414244
151	0xbdcea7f6	-0.1009063
152	0x3d360f41	0.04444814
153	0xbd472ddc	-0.04862772
154	0xbd5e8604	-0.054327026
155	0xbcdc946b	-0.02692624
156	0xbd43bade	-0.047785632
157	0x3d90e0d8	0.070741355
158	0xbcc8f094	-0.02452878
159	0x3dc8782f	0.09788548
160	0x3cf15292	0.029458318
161	0xbca369a4	-0.019947834
162	0xbd98b6fc	-0.074567765
163	0xbdf21998	-0.11821288
164	0xbd1a429e	-0.037661187
165	0xbdf4d6b7	-0.11955016
166	0xbcc3f065	-0.02391834
167	0x3b0a489e	0.0021100412
168	0xbc084f31	-0.008319662
169	0xbd81e028	-0.063415825
170	0x3db781e6	0.08960323
171	0x3d94e6fe	0.07270621
172	0xbd024836	-0.031807147
173	0xbd50edb5	-0.051007945
174	0x3da63913	0.08116355
175	0x3de607d9	0.112319656
176	0xbdf21743	-0.11820843
177	0xbce4801f	-0.027893124
178	0xbc444abb	-0.011980708
179	0xbd3f7465	-0.04674186
180	0x3de1b78c	0.11021337
181	0xbc9c378e	-0.01906946
182	0x3de02ae0	0.10945678
183	0x3a274e08	0.0006382172
184	0xbc656f47	-0.014003581
185	0xbd9a38f1	-0.07530392
186	0xbd2fd396	-0.042926393
187	0x3d2a6469	0.041599665
188	0x3d69e77c	0.057105526
189	0xbb96840d	-0.0045933784
190	0x3dfbed71	0.12301148
191	0xbdb6ff36	-0.089353964
192	0x3d4abee6	0.04949846
193	0x3dee227e	0.116276726
194	0xbcb7e51d	-0.022448117
195	0x3dd1e7f7	0.10249322
196	0x3b0b7800	0.0021281242
197	0xbdc5fdc8	-0.096675456
198	0xbd910d43	-0.070826076
199	0x3d44d307	0.048052814
200	0xbd64d578	-0.055867642
201	0x3cfe5c3e	0.031049844
202	0x3e021dcd	0.1270668
203	0x3d339ebd	0.043852556
204	0xbc45f536	-0.012082389
205	0x3d042c8b	0.032269042
206	0xbd985475	-0.07437984
207	0xbdde28c6	-0.10847621
208	0xbdc6bf01	-0.097044
209	0xbddddae5	-0.108327664
210	0x3cd9095e	0.026493724
211	0x3ccdffd5	0.025146404
212	0xbd60b82a	-0.054863133
213	0xbe014f34	-0.1262787
214	0x3d8f3972	0.06993379
215	0xbd960543	-0.07325222
216	0xbcb08f9f	-0.021552859
217	0xbdddb0e4	-0.10824755
218	0xbd952936	-0.07283251
219	0x3d5c972e	0.053855114
220	0xbdf65835	-0.12028543
221	0xbd96c4d6	-0.07361762
222	0x3dc639b5	0.096789755
223	0xbd879851	-0.06620849
224	0xbd5c0f45	-0.0537255
225	0xbd147882	-0.036247738
226	0x3d620963	0.055184733
227	0xbdad6f7e	-0.08468531
228	0x3c5413ef	0.012944206
229	0x3d57f5b5	0.05272456
230	0xbc198bf1	-0.009371744
231	0x3cbf3b0f	0.023343591
232	0xbdc9b18e	-0.09848319
233	0x3d6f10f7	0.05836579
234	0x3d459ff9	0.048248265
235	0xbc84a7a4	-0.016193219
236	0xbdda9ef5	-0.1067485
237	0x3d5380eb	0.051636618
238	0x3dac8776	0.084242746
239	0xbcb8fac6	-0.022580516
240	0x3d793d41	0.060849432
241	0x3d440057	0.047851887
242	0xbd537fd7	-0.05163559
243	0xbc12d5e3	-0.008962127
244	0x3e039845	0.12851055
245	0x3a1fc5cd	0.0006094843
246	0xbdd27d2c	-0.10277781
247	0xbc1a4164	-0.009415004
248	0x3d8388ef	0.064226024
249	0xbd2c9c28	-0.04214111
250	0xbd8a75ac	-0.067607254
251	0x3dd9cdac	0.10634932
252	0x3d8bde50	0.06829512
253	0xbcb3ad01	-0.02193308
254	0x3bd81f81	0.0065955524
255	0xbc5fb4a4	-0.013653908

model.encoder.mlp_edge_list.0._model.0.bias f4 [30]
0	0xbc1872a2	-0.009304674
1	0x3d283c30	0.041073024
2	0xbe039352	-0.12849167
3	0xbdf5787c	-0.11985871
4	0x3a37feb5	0.00070188503
5	0xbd315fe8	-0.043304354
6	0x3db832fc	0.089940995
7	0x3d17d25f	0.03706586
8	0xbde5805c	-0.11206123
9	0xbdee4d61	-0.116358526
10	0x3db592fd	0.088659264
11	0xbcbb881d	-0.022892052
12	0xbd6752d6	-0.056475483
13	0x3d268f24	0.040663853
14	0xbccfda25	-0.025372574
15	0x3d7ce4a1	0.061741475
16	0x3d0618a4	0.032738343
17	0xbd64f3e4	-0.055896655
18	0xbdd3e90c	-0.103471845
19	0x3d8f20e6	0.06988697
20	0xbd9eda0d	-0.07756434
21	0xbc69f223	-0.014278921
22	0x3c9099f9	0.017651545
23	0xbd99de99	-0.0751316
24	0x3d9005d7	0.07032364
25	0xbdb9f8ff	-0.09080695
26	0x3d01dfe2	0.031707652
27	0x3c623802	0.013807299
28	0x3d4204f2	0.047367997
29	0xbe01bdc1	-0.12670042

model.encoder.mlp_edge_list.0._model.2.weight f4 [30, 30]
0	0x3c2ccb2b	0.010546486
1	0x3db648c9	0.089006014
2	0xbdef6282	-0.11688711
3	0x3d390cc6	0.045178197
4	0x3a3b883f	0.0007153786
5	0x3e1e9aa5	0.1548868
6	0xbd1e596d	-0.0386595
7	0x3aa37d4e	0.0012473257
8	0xbda2a0d6	-0.07940833
9	0xbd384daa	-0.04499594
10	0x3d5615b6	0.0522668
11	0xbe344f08	-0.17608273
12	0x3e0dd380	0.13850212
13	0x3e0670b3	0.13128929
14	0x3d9e599e	0.07731937
15	0x3e0bf46a	0.13667455
16	0xbd68c99b	-0.05683289
17	0x3d2a55f3	0.041585874
18	0x3c182e69	0.009288409
19	0xbe01476f	-0.12624906
20	0xbd8fbfb3	-0.070189856
21	0xbd84be19	-0.06481571
22	0xbd38e6ea	-0.04514209
23	0xbe260163	-0.16211466
24	0xbe037bf7	-0.12840258
25	0xbc8e07e0	-0.01733774
26	0xbce385c6	-0.02777375
27	0xbe29b566	-0.16573104
28	0x3d1fc91b	0.03901015
29	0x3dcb97ce	0.09941064
30	0x3e1bb312	0.15205029
31	0x3e1d57c4	0.15365511
32	0xbe02a374	-0.12757665
33	0xbd6faa08	-0.058511764
34	0xbdb161f7	-0.086612634
35	0x3d0928a5	0.033486027
36	0x3d48649b	0.04892407
37	0x3d266170	0.040620267
38	0x3dda80c8	0.10669094
39	0x3dc54480	0.09632206
40	0xbdc8b230	-0.097996116
41	0x3e005786	0.12533388
42	0x3dfc3ab1	0.12315882
43	0x3cc5ed38	0.024160966
44	0xbe22a7fc	-0.15884393
45	0xbde55468	-0.1119774
46	0x3d506693	0.050879072
47	0x3d8146f3	0.063123606
48	0x3e2e53bd	0.17024131
49	0x3dbe4db5	0.09292165
50	0x3d87859d	0.066172816
51	0xbbcc0c4d	-0.0062270523
52	0x3dfef593	0.12449183
53	0xbd881945	-0.06645445
54	0x3d983ea9	0.074338265
55	0xbdb216e8	-0.08695775
56	0xbadf5b50	-0.0017040763
57	0x3ddcfadf	0.10790037
58	0x3dab91d6	0.083774254
59	0xbd27d0b0	-0.040970504
60	0xbb178154	-0.0023117857
61	0xbdcf9229	-0.101353
62	0x3dad320a	0.0845681
63	0x3dfb9932	0.12285079
64	0x3d80b576	0.06284611
65	0xbe34e906	-0.17667016
66	0xbe05d543	-0.13069634
67	0x3dfa514a	0.12222536
68	0xbcd62749	-0.02614178
69	0x3de5a14e	0.11212407
70	0x3e09ce7a	0.13457671
71	0xbd5b0ef0	-0.053481042
72	0xbddb61df	-0.10712027
73	0xbe2fe314	-0.17176467
74	0x3d8f073e	0.06983803
75	0x3dbfc604	0.0936394
76	0xbd01a5ae	-0.031652145
77	0xbe358066	-0.17724761
78	0xbdf0d730	-0.11759794
79	0xbc212c37	-0.009837202
80	0x3daaa795	0.08332745
81	0xbd7a952c	-0.061177418
82	0xbdf161b4	-0.117862135
83	0xbe022772	-0.1271036
84	0x3e274667	0.1633545
85	0x3d8766eb	0.06611427
86	0xbe17caec	-0.14823502
87	0xbde6eaf4	-0.112752825
88	0xbe1eb4bb	-0.1549863
89	0x3cd864a9	0.026415186
90	0xbd97d52a	-0.07413705
91	0xba220479	-0.0006180476
92	0xbcec9bdc	-0.028882913
93	0xbe23a680	-0.15981483
94	0xbe271194	-0.163153
95	0xbe110227	-0.14160977
96	0xbd9c9926	-0.07646398
97	0x3ce8a00c	0.028396629
98	0xbdafd795	-0.08586041
99	0xbbd53f82	-0.006507815
100	0xbcb32746	-0.021869313
101	0x3e2afa8c	0.16697139
102	0xbdaa7488	-0.08323008
103	0x3e2fa6c4	0.1715346
104	0xbe0f860a	-0.14015976
105	0xbe1bfbdf	-0.152328
106	0x3d733004	0.059371963
107	0xbdd99d6b	-0.10625728
108	0x3dbfc9d9	0.09364671
109	0xbdcedda3	-0.101008676
110	0x3e1338a2	0.14377072
111	0x3e350729	0.17678513
112	0x3c3f805d	0.011688319
113	0x3d1fd326	0.039019726
114	0x3e2e4d86	0.1702176
115	0x3ddda93e	0.10823296
116	0xbe2335d7	-0.15938507
117	0xbbbf8248	-0.005844388
118	0xbe28c2cd	-0.1648056
119	0x3e0ed02c	0.13946599
120	0xbd08f9d0	-0.033441365
121	0xbaa6cea4	-0.0012726379
122	0xbde5ba42	-0.112171665
123	0xbdcb50f2	-0.099275485
124	0x3cc21b20	0.023694575
125	0x3e1a4083	0.15063672
126	0xbdbbf2aa	-0.09177144
127	0x3c8d5445	0.017252097
128	0x3e293bd9	0.16526736
129	0x3e278d6d	0.16362543
130	0xbd123436	-0.035694323
131	0x3e2f3a04	0.17111975
132	0x3d882ac3	0.06648781
133	0x3e2a45c6	0.16628179
134	0x3bb18057	0.0054169106
135	0xbe1e71b8	-0.15473068
136	0xbd4b8f83	-0.04969741
137	0x3d604b8f	0.05475956
138	0x3dc765c4	0.09736207
139	0xbe3a3f3d	-0.18188186
140	0x3e116c72	0.14201525
141	0xbe27b6b3	-0.16378288
142	0x3ddb152b	0.10697397
143	0x3e38768e	0.18013975
144	0x3d384a0f	0.044992503
145	0xbd0d2345	-0.034457464
146	0x3dcde0c0	0.10052633
147	0xbd5df4b7	-0.054188456
148	0xbe0a7c01	-0.13523866
149	0xbe04ae2b	-0.12957065
150	0x3dafce80	0.085843086
151	0x3e0ec864	0.1394363
152	0x3bf2406f	0.007392935
153	0xbe354548	-0.1770221
154	0xbe37b455	-0.17939885
155	0xbd28dd3b	-0.041226607
156	0x3dc9d848	0.098557055
157	0xbdf92c51	-0.12166656
158	0x3d4991ac	0.04921119
159	0xbdcc5e7b	-0.09978958
160	0x3e181c30	0.14854503
161	0xbd43f3fe	-0.04784011
162	0xbd1bd88b	-0.03804831
163	0xbe23f9b5	-0.16013224
164	0xbe277474	-0.16353017
165	0x3c4a2a7c	0.012339231
166	0x3cf1d543	0.029520636
167	0x3dca032d	0.09863887
168	0xbe237ad0	-0.15964818
169	0x3d0308be	0.03199076
170	0xbcd80f7d	-0.026374573
171	0x3ddb55cd	0.107097246
172	0xbdaa0428	-0.08301574
173	0x3d5ecbfe	0.05439376
174	0x3d96acd6	0.073571846
175	0x3dbbd47e	0.09171389
176	0xbd803f6d	-0.062620975
177	0x3d70a867	0.05875435
178	0xbd128f6e	-0.035781316
179	0x3d495fa0	0.04916346
180	0xbde5eb6b	-0.11226543
181	0xbe148e94	-0.14507514
182	0xbe18ed6c	-0.1493432
183	0xbdeb0d1b	-0.11477109
184	0xbd9e3ff8	-0.07727045
185	0x3cdea151	0.027176531
186	0xbd2393b2	-0.039935775
187	0xbdd4dbea	-0.10393508
188	0x3ac90748	0.0015337253
189	0xbd6c290b	-0.05765633
190	0x3de67d9d	0.112544276
191	0xbe19fa5b	-0.1503691
192	0xbd8a039e	-0.06738971
193	0xbdf049c3	-0.11732819
194	0x3cb88ca1	0.022527995
195	0x3c233143	0.009960475
196	0xbc2c13c6	-0.010502761
197	0x3e397f3b	0.18114941
198	0xbd8ea42f	-0.06964909
199	0xbcd6f7e0	-0.026241243
200	0x3d4134ab	0.04716937
201	0x3e1c0922	0.15237859
202	0x3e0db54d	0.13838692
203	0x3caadc4d	0.020857
204	0xbd8d75fa	-0.06907268
205	0x3d75ac8a	0.059979
206	0x3deb428b	0.114873014
207	0xbb7f5a52	-0.0038963747
208	0x3dcd4a4c	0.10023937
209	0x3e19023b	0.14942257
210	0xbdc8548a	-0.097817495
211	0xbd25537b	-0.040362816
212	0xbe2851c0	-0.16437435
213	0x3d2baa5c	0.041910514
214	0x3e053ddf	0.13011883
215	0xbd113882	-0.03545428
216	0x3ceea8ac	0.029133163
217	0x3d6ef482	0.05833865
218	0xbb7f3571	-0.0038941766
219	0x3e1158e2	0.14194062
220	0x3cd9f2ac	0.026604973
221	0xbe37c47f	-0.17946051
222	0xbe1a62b9	-0.15076722
223	0xbe393ac0	-0.18088818
224	0x3bf694a9	0.007525046
225	0x3dca1ff1	0.098693736
226	0xbcc5524e	-0.024087097
227	0x3e281833	0.16415481
228	0xbd068923	-0.032845628
229	0x3d18e493	0.03732736
230	0x3e2895f7	0.16463457
231	0x3dbd3bd8	0.0923993
232	0xbbbedcaf	-0.0058246474
233	0x3e34148d	0.17585965
234	0xbddf662a	-0.10908158
235	0x3d8b45e8	0.06800443
236	0x3dec23a3	0.11530235
237	0xbde785ed	-0.11304841
238	0xbe2f9daa	-0.17149988
239	0x3d6f3356	0.058398567
240	0xbd8ddba6	-0.0692666
241	0xbdbcb108	-0.092134535
242	0x3d14bf05	0.036314983
243	0xbe079f86	-0.13244447
244	0x3e28261f	0.16420792
245	0xbc864218	-0.016388938
246	0xbd6f7e0e	-0.058469824
247	0x3e1c4aac	0.1526286
248	0x3d5039a9	0.05083624
249	0x3d0e7a25	0.034784455
250	0xbdb2c763	-0.08729436
251	0x3e322ed9	0.17400683
252	0xbd63c382	-0.055606373
253	0x3e1b7f35	0.15185244
254	0xbc5be2b9	-0.013420754
255	0x3dbb917a	0.09158607

model.encoder.mlp_edge_list.0._model.2.bias f4 [30]
0	0xbe1677a0	-0.14694071
1	0xbcc8ab43	-0.024495726
2	0xbdcf8c25	-0.10134152
3	0x3e242898	0.1603111
4	0x3e1e5aba	0.15464297
5	0x3e37e664	0.17958981
6	0x3e2c01fc	0.16797632
7	0x3d94171e	0.07230972
8	0xbe0f27a7	-0.1397997
9	0xbdfda162	-0.12384297
10	0x3d334554	0.04376729
11	0xbe26ea36	-0.16300282
12	0x3decb7ab	0.115584694
13	0x3da28e34	0.07937279
14	0x3d326d3b	0.0435612
15	0xbe232de6	-0.15935478
16	0x3e080030	0.13281322
17	0xbc9e4aef	-0.01932284
18	0xbd9ce857	-0.07661503
19	0x3dc3391d	0.09532378
20	0x3c7cc80d	0.015428555
21	0xbda654c3	-0.08121636
22	0x3d2f07ca	0.042732038
23	0xbdf9589d	-0.12175105
24	0x3e2dc26e	0.169687
25	0x3e23ddcc	0.16002578
26	0x3dac7100	0.084199905
27	0x3dc5cf4d	0.0965868
28	0xbe39d84b	-0.18148915
29	0xbdcfda5b	-0.1014907

model.encoder.mlp_node_list.0._model.0.weight f4 [30, 30]
0	0xbe33e6ce	-0.17568514
1	0xbdc2e296	-0.09515874
2	0xbe1b0016	-0.15136752
3	0x3e099cea	0.13438764
4	0x3dc9bae6	0.09850101
5	0x3ddc339e	0.10752033
6	0xbda5fe18	-0.08105105
7	0x3e0e7ed4	0.13915569
8	0xbcd81eea	-0.026381928
9	0xbd41c0ae	-0.047302894
10	0x3dc9538a	0.09830387
11	0x3df79dc2	0.12090637
12	0xbe065ef8	-0.13122165
13	0x3e31fcd2	0.173816
14	0xbc96f479	-0.01842712
15	0x3d472cee	0.048626833
16	0xbe3a28ad	-0.18179579
17	0x3ca680f5	0.020325163
18	0xbdb90e19	-0.09035892
19	0xbdea1f19	-0.11431713
20	0xbd9c1e35	-0.07622949
21	0xba5ef0b1	-0.0008504494
22	0xbd550a7e	-0.05201196
23	0xbdef869a	-0.11695595
24	0x3e05db8b	0.1307203
25	0x3d5e7a1c	0.05431567
26	0xbe2dfd53	-0.16991167
27	0x3d1cde84	0.038298145
28	0x3d37b3c7	0.044849183
29	0x3bdbd565	0.006708788
30	0x3d35973e	0.04433369
31	0xbc7a71c1	-0.01528591
32	0x3da38713	0.07984748
33	0xbe039cfa	-0.1285285
34	0xbd9f6de0	-0.07784629
35	0x3e0c0cc4	0.13676745
36	0xbde7a753	-0.113112114
37	0x3db773f5	0.08957664
38	0x3e2cfc35	0.16893084
39	0xbe2af45c	-0.16694778
40	0xbda3d003	-0.079986595
41	0x3e1f8b1c	0.1558041
42	0xbc34dfeb	-0.011039714
43	0x3d13a16d	0.03604262
44	0x3cd4dc24	0.025983877
45	0x3d9a16ba	0.07523866
46	0xbd9a1045	-0.075226344
47	0x3cc22b19	0.023702191
48	0x3dfeb3a1	0.12436605
49	0xbc7c5a81	-0.015402437
50	0xbe2b861e	-0.1675038
51	0x3d813ea1	0.06310774
52	0xbd3ee8b1	-0.04660863
53	0xbd1dc46c	-0.0385174
54	0x3dc3021d	0.095218875
55	0x3d030f0b	0.031996768
56	0xbde232e5	-0.110448636
57	0xbdac8c9d	-0.08425257
58	0xbce35a52	-0.027753029
59	0xbd38c2e1	-0.045107726
60	0xbd1e5069	-0.038650904
61	0xbdff9279	-0.12479109
62	0x3e076f91	0.13226153
63	0x3dc1eb3c	0.094686955
64	0x3d13947d	0.03603028
65	0x3d2952c3	0.041338693
66	0x3caf17be	0.021373626
67	0x3e0bcb19	0.13651694
68	0x3d2937e7	0.04131308
69	0x3ce3d5ca	0.027811904
70	0xbdcd8b22	-0.10036303
71	0x3d7977b8	0.06090519
72	0xbe2ee7f1	-0.17080666
73	0x3d6bdae1	0.057581786
74	0xbe220d2b	-0.15825336
75	0xbd9ac068	-0.0755623
76	0x3dc5670d	0.09638796
77	0xbddeb4da	-0.108743384
78	0x3e14de37	0.14537893
79	0xbdce980e	-0.10087596
80	0x3e31153e	0.1729326
81	0x3d667d02	0.05627156
82	0xbda2094a	-0.07911928
83	0x3de40a7f	0.111348145
84	0xbe25911c	-0.16168636
85	0xbdecdea9	-0.115659066
86	0xbdea4270	-0.11438453
87	0x3cc4e312	0.024034057
88	0x3c92efda	0.017936636
89	0xbe20cd5b	-0.15703337
90	0x3e3467b8	0.1761769
91	0xb936f650	-0.00017448631
92	0xbdc7aaf1	-0.09749401
93	0x3b8ee6c1	0.004361004
94	0xbda080c1	-0.07837058
95	0x3d4e5192	0.05037076
96	0x3d875c0e	0.06609355
97	0xbd5420e9	-0.051789198
98	0x3c2e630a	0.01064373
99	0x3dde7b08	0.1086331
100	0xbdf3343a	-0.11875196
101	0xbd26c179	-0.040711854
102	0xbcdca513	-0.026934182
103	0xbdf7628c	-0.12079343
104	0x3c73a1fd	0.014870164
105	0x3bdbe02b	0.0067100725
106	0xbe17027b	-0.1474704
107	0x3d196801	0.0374527
108	0x3e327175	0.17426093
109	0x3dc6e1a4	0.09711006
110	0xbdcad2f5	-0.09903518
111	0x3e2b221d	0.16712232
112	0xbe00832d	-0.1255004
113	0xbdbe1d2a	-0.09282906
114	0x3da4ee12	0.08053221
115	0x3e14bb31	0.14524533
116	0x3e3268d3	0.174228
117	0x3e20f479	0.15718259
118	0xbdcde49c	-0.100533694
119	0x3d2b1f3d	0.041777838
120	0xbdeac8d9	-0.1146409
121	0x3b841d81	0.0040318375
122	0x3e1ae4d9	0.15126361
123	0x3db81c73	0.08989801
124	0xbe2ca158	-0.16858423
125	0xbda0ebe4	-0.078574926
126	0xbe1dbe0f	-0.15404533
127	0x3db023a3	0.08600547
128	0xbcbddd72	-0.023176882
129	0xbe08ab4a	-0.13346592
130	0xbd6ef66d	-0.05834048
131	0x3d7568bc	0.059914336
132	0x3c8a776b	0.016902646
133	0x3e2f6c12	0.1713107
134	0xbb1edaf0	-0.0024239384
135	0x3d6b3bad	0.057429958
136	0xbd62893b	-0.055306654
137	0x3cb27902	0.021786217
138	0x3bd6512f	0.0065404396
139	0x3e209778	0.1568278
140	0x3d9cac4c	0.076500505
141	0xbdd516e5	-0.104047574
142	0xbe261f01	-0.16222765
143	0xbe31e08f	-0.17370819
144	0xbd87ca08	-0.06630331
145	0x3cc155cf	0.023600487
146	0x3e2fe1c0	0.1717596
147	0xbc92f447	-0.017938746
148	0x3d923234	0.07138482
149	0x3dbe0811	0.09278882
150	0xbe0f3556	-0.1398519
151	0xbe1aa723	-0.1510282
152	0x3d8dae64	0.06918028
153	0x3dae48a8	0.08509952
154	0xbdae1b47	-0.085012965
155	0x3cea6151	0.028610857
156	0xbe370cf6	-0.17876038
157	0x3b16d154	0.0023012953
158	0x3d374f05	0.044753093
159	0x3ae283c0	0.0017281696
160	0xbced676e	-0.028979983
161	0x3d9ba21a	0.07599278
162	0xbd4d8d42	-0.050183542
163	0x3e0b2b39	0.13590707
164	0xbe2107da	-0.15725651
165	0xbdd5b082	-0.10434057
166	0xbe1c13b6	-0.15241894
167	0xbe29155c	-0.16512054
168	0x3e0a99b6	0.13535199
169	0xbd3910ee	-0.04518216
170	0xbe12dbe3	-0.14341693
171	0x3d1b1b1a	0.037867643
172	0xbe0d92d0	-0.13825536
173	0x3c1aa147	0.009437866
174	0x3db1c044	0.0867925
175	0xbd1e21e0	-0.038606524
176	0x3dc0381a	0.093857005
177	0x3d197ca2	0.037472375
178	0xbe160560	-0.14650488
179	0x3d132f69	0.035933886
180	0x3df10a03	0.11769488
181	0xbd2d5c3f	-0.0423243
182	0x3c8d5a40	0.017254949
183	0x3cbece4f	0.023291735
184	0x3c809d27	0.015699936
185	0x3d42655d	0.04745995
186	0xbe3300b2	-0.17480734
187	0x3e0dd8aa	0.13852182
188	0x3da3146e	0.07962881
189	0x3cb8b2ca	0.02254619
190	0x3d0812f9	0.03322122
191	0xbe16c624	-0.14724022
192	0xbd5584f4	-0.052128747
193	0xbc021c8f	-0.007941379
194	0x3d31c3c2	0.04339958
195	0xbdcd1cdc	-0.1001527
196	0x3c9eb1dc	0.01937192
197	0xbd6815dc	-0.05666147
198	0x3e0814d8	0.13289201
199	0xbe2079cb	-0.1567146
200	0x3c9c5824	0.019084997
201	0x3dfd52c6	0.123693034
202	0xbe113492	-0.1418021
203	0xbbab7821	-0.0052328263
204	0x3dacc82e	0.08436619
205	0x3d96e206	0.07367329
206	0x3cafe373	0.02147076
207	0x3d97260b	0.07380303
208	0xbe02538f	-0.12727188
209	0x3e1bb67e	0.15206334
210	0x3b856e5a	0.004071993
211	0x3df1b310	0.118017316
212	0x3d256efb	0.040389042
213	0xbca6630f	-0.020310907
214	0x3da02915	0.07820336
215	0x3e317a37	0.17331778
216	0x3e386aa0	0.18009424
217	0xbe1d5e96	-0.15368113
218	0x3c356b96	0.011073014
219	0xbe064e03	-0.13115697
220	0x3dd9dbf4	0.10637656
221	0x3e0636f3	0.13106899
222	0xbe0347af	-0.12820314
223	0xbc2ce244	-0.010551993
224	0x3e015e99	0.12633742
225	0x3df7453e	0.12073754
226	0xbe0c9106	-0.13727197
227	0x3dfb0e47	0.122585826
228	0xbd0464f5	-0.032322843
229	0xbe1f0038	-0.15527427
230	0x3d14f740	0.03636861
231	0x3dae3101	0.085054405
232	0x3de03e29	0.10949356
233	0xbdfe3b36	-0.12413637
234	0xbe0768b1	-0.1322353
235	0xbdfb3a67	-0.12266999
236	0x3dd3e685	0.103467025
237	0xbe23655f	-0.15956639
238	0xbac9cb00	-0.0015395582
239	0xbd5bc190	-0.053651392
240	0x3da3406e	0.07971273
241	0x3d12dc51	0.03585464
242	0xbdbcd0fe	-0.092195496
243	0x3d029eb1	0.03188962
244	0x3e2c0cae	0.16801712
245	0x3cf63fb7	0.030059678
246	0xbdb94a33	-0.090473555
247	0x3bc84bf6	0.006112571
248	0xbe2b7c21	-0.1674657
249	0xbdefe682	-0.11713888
250	0xbd0ae822	-0.033912785
251	0xbde900fb	-0.1137714
252	0x3e1e512e	0.15460655
253	0x3d112909	0.035439525
254	0x3e10ce2c	0.14141148
255	0xbd2a4943	-0.041573774

model.encoder.mlp_node_list.0._model.0.bias f4 [30]
0	0x3d3826af	0.044958767
1	0x3e1a3307	0.15058528
2	0xbaea0529	-0.0017854321
3	0xbd828287	-0.06372552
4	0x3e16adbd	0.14714713
5	0xbdc71d63	-0.09722402
6	0xbe2cf434	-0.16890031
7	0x3d23abba	0.039958693
8	0x3dba5927	0.09099036
9	0xbddf82e9	-0.10913641
10	0x3d839a8a	0.0642596
11	0xbd84a85c	-0.064774245
12	0xbcb578d3	-0.02215234
13	0xbd2594e9	-0.040425215
14	0xbd1ff43d	-0.039051283
15	0xbe181e84	-0.14855391
16	0x3d374783	0.044745933
17	0xbd44b5dd	-0.048025
18	0x3e0ef403	0.1396027
19	0x3cf9a3fe	0.030473705
20	0xbe18e584	-0.14931303
21	0xbe0e3a40	-0.13889408
22	0xbdc2de89	-0.095151015
23	0x3db30ed2	0.08743061
24	0xbdf16a23	-0.11787822
25	0xbdab0df9	-0.083522744
26	0x3d07c460	0.033146262
27	0xbe019dbd	-0.12657829
28	0xbdb81fab	-0.08990415
29	0x3e298765	0.16555555

model.encoder.mlp_node_list.0._model.2.weight f4 [30, 30]
0	0xbdc5af54	-0.09652582
1	0xbd79275d	-0.060828555
2	0x3e05b605	0.13057716
3	0x3d279352	0.04091198
4	0x3e12bddd	0.1433024
5	0xbe24b4d1	-0.16084601
6	0x3dbae5f0	0.09125888
7	0xbce4c56b	-0.027926167
8	0xbdef8b99	-0.11696548
9	0xbda02529	-0.07819588
10	0xbe34d672	-0.1765993
11	0x3e0154dd	0.12630029
12	0xbd0f7e4a	-0.035032548
13	0xbe375192	-0.1790221
14	0x3e1fe34a	0.15614048
15	0x3df22f4b	0.11825427
16	0x3d9a9b29	0.07549126
17	0x3e36fabf	0.1786909
18	0x3e28d4d4	0.16487437
19	0x3e2eb8a6	0.17062625
20	0x3e276c81	0.16349985
21	0x3e17ef54	0.1483739
22	0x3d43c5aa	0.04779593
23	0xbc7a8201	-0.015289784
24	0x3be3838a	0.006943171
25	0xbd9b63b2	-0.07587375
26	0x3dafaf76	0.085783884
27	0x3bad51ba	0.0052892836
28	0x3d306e5e	0.043074004
29	0xbdf0dabf	-0.117604725
30	0xbd8cc9db	-0.068744384
31	0x3e0c2951	0.13687636
32	0x3c917805	0.017757425
33	0x3d8108b1	0.06300486
34	0xbe2336c5	-0.15938862
35	0xbda01e6d	-0.07818303
36	0xbb9842ad	-0.0046466202
37	0xbc9cf253	-0.019158518
38	0x3deeaf4d	0.1165453
39	0xbd61ae8d	-0.055098105
40	0x3e1c086f	0.15237592
41	0xbd10a28c	-0.035311267
42	0x3d916ec1	0.07101203
43	0xbe039f4b	-0.12853734
44	0x3cfddc83	0.030988937
45	0xbe364531	-0.17799832
46	0xbe2067f5	-0.15664656
47	0xbdef4e3b	-0.11684843
48	0x3d515bc5	0.05111291
49	0x3c67d8ad	0.014150781
50	0x3c90c167	0.017670346
51	0xbca39b4b	-0.01997151
52	0x3e1d16f6	0.1534079
53	0x3e37245f	0.17884968
54	0x3d9ecbcc	0.07753715
55	0x3e14ad7b	0.14519303
56	0xbc13d5fc	-0.009023186
57	0xbd897640	-0.067120075
58	0x3d116246	0.03549411
59	0x3df5dc48	0.12004906
60	0xbce727a0	-0.028217137
61	0xbe0f8cfd	-0.14018627
62	0x3d76f555	0.06029256
63	0xbd3ea1ce	-0.046541028
64	0xbdb3fd98	-0.087886035
65	0x3dec2bd1	0.11531795
66	0xbbcb0ffb	-0.0061969734
67	0xbdd5bcc1	-0.104363926
68	0xbddfbd0c	-0.1092473
69	0x3e301155	0.17194112
70	0x3df335ca	0.11875494
71	0xbe060ef4	-0.13091642
72	0x38b707d7	8.72758e-05
73	0xbb816e7a	-0.0039499374
74	0x3db23afd	0.08702657
75	0xbe201eec	-0.15636796
76	0x3b31d424	0.0027134502
77	0x3d792ae7	0.06083193
78	0x3dbe48f0	0.092912555
79	0x3c9c63b0	0.019090503
80	0xbdb95654	-0.09049669
81	0xbe337aff	-0.17527388
82	0x3dca1aba	0.09868379
83	0x3e2aaf16	0.16668352
84	0xbd61c868	-0.055122763
85	0xbe2712ee	-0.16315815
86	0x3d5acd7c	0.05341862
87	0xbe031316	-0.1280025
88	0xbdf44d0c	-0.11928758
89	0x3d4bd8a2	0.049767144
90	0xbc8e07d5	-0.017337719
91	0xbc4b783b	-0.012418802
92	0x3e27b099	0.1637596
93	0xbd032b86	-0.03202393
94	0x3de39a9c	0.11113474
95	0xbd68bd83	-0.056821357
96	0x3e0b1d5d	0.1358542
97	0x3d6423f4	0.05569835
98	0x3e26989b	0.16269152
99	0x3d8269ad	0.06367812
100	0xbd847237	-0.06467097
101	0x3da2f890	0.07957566
102	0x3e1f484e	0.15554926
103	0x3d0dbccb	0.034603875
104	0x3dac6256	0.084171936
105	0xbe038723	-0.1284452
106	0x3dca995e	0.09892534
107	0xbe30ba38	-0.17258537
108	0x3e2545ea	0.16139951
109	0x3d9a6f3b	0.07540747
110	0x3c44da38	0.012014918
111	0xbe2efb67	-0.1708809
112	0x3e2a02af	0.16602586
113	0x3dee6bf1	0.11641682
114	0x3e2c594b	0.16830938
115	0x3d92fd25	0.0717719
116	0x3d7bd9ad	0.06148689
117	0xbd41b61d	-0.047292817
118	0xbd993ad1	-0.074819215
119	0x3d943844	0.07237294
120	0x3d81acb6	0.0633177
121	0xbbc1f4b1	-0.005919062
122	0x3cede545	0.029039988
123	0x3d80719f	0.062716715
124	0xbe34aa88	-0.17643178
125	0xbe255553	-0.1614583
126	0xbd4712d8	-0.048601955
127	0x3dfea80c	0.12434396
128	0x3db66ccc	0.0890747
129	0xbe32713e	-0.17426011
130	0xbd608878	-0.054817647
131	0xbc9e190b	-0.01929905
132	0x3d759db4	0.05996485
133	0x3e18f3e0	0.14936781
134	0x3b82d940	0.0039931834
135	0xbe11861f	-0.1421132
136	0x3c378b05	0.011202578
137	0xbd9063e4	-0.070503026
138	0xbde48365	-0.11157874
139	0x3dcf1b2b	0.10112604
140	0xbcc8f176	-0.0245292
141	0x3db0ae1e	0.0862696
142	0x3e119327	0.1421629
143	0x3c92fea3	0.017943686
144	0x3dd29afa	0.10283466
145	0xbdb097d8	-0.08622712
146	0x3dd0b939	0.101915784
147	0x3bef018a	0.0072938846
148	0x3df879b9	0.12132592
149	0x3e32bdb3	0.17455177
150	0xbe0d6c74	-0.13810903
151	0x3e317b30	0.17332149
152	0x3e0eb70e	0.13937017
153	0xbe169b1d	-0.14707609
154	0x3d5b37dc	0.05352007
155	0xbe1833cc	-0.14863509
156	0x3d72956c	0.05922453
157	0x3ce74972	0.028233264
158	0xbe327865	-0.1742874
159	0x3d87bcb2	0.06627788
160	0xbd4d6996	-0.050149523
161	0x3e3a5a7c	0.1819858
162	0x3e367874	0.17819387
163	0x3d811403	0.06302645
164	0x3e135de1	0.1439128
165	0x3d870cbd	0.065942265
166	0x3e30e0ed	0.17273302
167	0xbc8a1690	-0.016856462
168	0x3d38d332	0.045123287
169	0xbcf70e35	-0.030158142
170	0xbb51405c	-0.003192923
171	0xbd6197e3	-0.05507649
172	0xbd93fa3a	-0.07225461
173	0x3dd84cbe	0.105615124
174	0x3da074ab	0.07834753
175	0xbda50f12	-0.08059515
176	0xbe24c3bb	-0.1609029
177	0x3db6d3b4	0.08927098
178	0xbe2bf9ba	-0.16794482
179	0xbc045e51	-0.008079127
180	0xbe20dd6a	-0.15709463
181	0x3e1c8b43	0.15287499
182	0x3e183be3	0.14866595
183	0xbe19a5f3	-0.15004711
184	0xbe2dd1b4	-0.16974527
185	0xbddd130b	-0.10794648
186	0x3d4e5aff	0.05037975
187	0xbdbafbff	-0.09130096
188	0xbd321760	-0.043479323
189	0xbd3d8ece	-0.046278767
190	0x3d092cef	0.033490118
191	0xbdb0dccd	-0.086358644
192	0x3daa0f8b	0.08303746
193	0xbe05c881	-0.13064767
194	0xbc852220	-0.016251624
195	0x3e1cb61f	0.15303849
196	0xbdce7757	-0.10081356
197	0x3e0f6fa1	0.14007427
198	0x3dc29b30	0.09502256
199	0xbd718f8b	-0.058974784
200	0x3d81a8cc	0.063310236
201	0xbdfc9b1a	-0.12334271
202	0x3c70bf4b	0.014694045
203	0x3d53d43b	0.05171607
204	0x3e21b5ad	0.1579196
205	0xbdd13bb4	-0.102164656
206	0xbdd4a6e6	-0.10383396
207	0xbdba9f0b	-0.09112366
208	0xbe36209a	-0.17785874
209	0x3d173b04	0.036921516
210	0xbe1ac1ab	-0.15112941
211	0xbd48bfb0	-0.049010932
212	0xbda6d525	-0.08146123
213	0x3c273f1b	0.010207917
214	0x3d62d9f9	0.055383656
215	0xbe07dbb4	-0.13267404
216	0xbd5cc4c0	-0.053898573
217	0xbc8fca32	-0.017552469
218	0xbdd826e1	-0.105542906
219	0x3d2cc184	0.04217674
220	0x3d8a6bbb	0.06758829
221	0xbe053d70	-0.13011718
222	0x3e1301ae	0.1435611
223	0x3e04d9d4	0.1297372
224	0xbd60aa27	-0.05484977
225	0x3cde8a21	0.027165474
226	0x3cb61b68	0.022229865
227	0xbcce5b91	-0.025190147
228	0xbdfaf24f	-0.12253248
229	0x3e1a0e37	0.15044485
230	0x3db800d0	0.0898453
231	0xbe1c3bb7	-0.15257154
232	0xbe10e4d1	-0.14149787
233	0x3e31c965	0.17361982
234	0x3ceeb674	0.029139735
235	0xbd2bcf2c	-0.04194562
236	0x3dfd6a0a	0.12373741
237	0x3d56d587	0.05244973
238	0x3d863937	0.065538816
239	0x3e1451cb	0.14484327
240	0xbc6976d8	-0.014249526
241	0x3e32254d	0.17397042
242	0xbe035308	-0.12824643
243	0xbde38684	-0.11109641
244	0x3cfd6b97	0.030935092
245	0xbcb5942a	-0.022165377
246	0x3dd55f98	0.10418624
247	0xbd4b5a85	-0.049646873
248	0x3ceb3021	0.028709473
249	0xbd1b6389	-0.03793672
250	0x3e0c5b46	0.13706693
251	0xbc4434e5	-0.011975502
252	0x3b37a881	0.002802402
253	0x3e08f674	0.13375264
254	0x3e35c128	0.17749465
255	0x3e32e3c6	0.17469701

model.encoder.mlp_node_list.0._model.2.bias f4 [30]
0	0x3e086f02	0.13323596
1	0x3c21afab	0.009868543
2	0x3e295de8	0.16539729
3	0xbddd5484	-0.10807136
4	0xbc92212d	-0.017838085
5	0x3c71e43c	0.014763888
6	0x3c223550	0.009900406
7	0xbe07e4bc	-0.13270849
8	0x3e32687d	0.17422672
9	0xbdd1d04f	-0.1024481
10	0x3e06f089	0.13177694
11	0xbd952aa2	-0.07283522
12	0x3d94ac7a	0.0725946
13	0xbdce070c	-0.10059938
14	0xbda2d655	-0.07951037
15	0x3d4528b9	0.04813454
16	0x3e008fbe	0.12554833
17	0xbc7068ef	-0.014673456
18	0x3d8c38ea	0.06846793
19	0xbdce4080	-0.10070896
20	0x3d6c6389	0.05771211
21	0xbca80bc6	-0.020513427
22	0xbd2a6217	-0.041597452
23	0x3db818fe	0.08989142
24	0xbd783c3b	-0.060604315
25	0xbde45b40	-0.11150217
26	0xbd541fa8	-0.051788002
27	0x3dba77e7	0.09104901
28	0x3e32fa32	0.17478254
29	0x3e2900f8	0.16504276
