pts/model/rgat/dnri-mod/372yrhv3/checkpoints/epoch=0-step=100.ckpt (torch, 225020 bytes, 97 tensors)

model.decoder.linear f4 [4, 15, 32]
0	0xbcf0056e	-0.029299464
1	0x3d9f8595	0.077891506
2	0xbdc997cc	-0.09843406
3	0xbdcfbfd3	-0.101440094
4	0xbc51a92b	-0.01279668
5	0x3d623969	0.05523053
6	0xbcf31617	-0.02967362
7	0x3dcd3401	0.100196846
8	0xbc4b9271	-0.012425051
9	0x3b00044a	0.0019533806
10	0xbb99a72a	-0.004689117
11	0xbd58a488	-0.052891284
12	0xbd87c914	-0.066301495
13	0xbdb74d7d	-0.089503266
14	0xbd90ff28	-0.07079917
15	0x3c33b4e2	0.010968419
16	0x3c2346d7	0.00996562
17	0x3dbdce85	0.09267906
18	0xbdc32678	-0.09528822
19	0xbd8f1ec1	-0.06988288
20	0x3d0d148e	0.03444343
21	0x3d8d85ba	0.06910272
22	0xbd25ecff	-0.04050922
23	0x3dca18a9	0.09867985
24	0x3c180a44	0.009279791
25	0xbca07826	-0.019588541
26	0x3db3ce5a	0.08779593
27	0xbdc0307e	-0.09384249
28	0xbd90814c	-0.070559114
29	0xbd4b3a9b	-0.049616437
30	0xbcbac233	-0.02279768
31	0x3ddbdf24	0.1073592
32	0xbdbdce01	-0.09267808
33	0xbcac8b63	-0.021062559
34	0xbdb02e68	-0.08602601
35	0xbdf83ad7	-0.12120598
36	0xbd05bc76	-0.032650433
37	0x3de93229	0.113865204
38	0x3c8a191b	0.016857674
39	0x3d8e294b	0.0694147
40	0x3acf960b	0.0015837563
41	0xbd99ecad	-0.075158454
42	0x3d2bf61b	0.04198275
43	0xbe011ee4	-0.1260944
44	0xbd31123e	-0.043230288
45	0xbd994fdd	-0.07485936
46	0x3d070978	0.032968014
47	0x3d86530c	0.06558809
48	0xbd95fa97	-0.07323187
49	0x3cf12349	0.02943577
50	0x3d11e644	0.03561999
51	0x3d93e884	0.07222083
52	0x3d188a19	0.037241075
53	0x394f3067	0.0001975909
54	0x3d3fcdf2	0.046827264
55	0xbd0bb299	-0.03410587
56	0x3d331e25	0.04372992
57	0xbddb41da	-0.107059196
58	0xbd91a02b	-0.07110628
59	0xbd58eb6a	-0.052958883
60	0x3d193c04	0.03741075
61	0x3c7d5aa4	0.015463505
62	0xbd302180	-0.043000698
63	0x3d523ecf	0.05132943
64	0x3cda29f4	0.026631333
65	0x3c48af3f	0.012248813
66	0xbc50e2cb	-0.012749384
67	0xbba1f6b5	-0.00494274
68	0x3db1bf3c	0.08679053
69	0x3dfd51de	0.123691306
70	0xbdd45239	-0.10367245
71	0xbc7bea0a	-0.0153756235
72	0x3d109ba2	0.035304673
73	0x3d6e6a8c	0.05820708
74	0x3de433f4	0.11142722
75	0x3d5eb059	0.054367397
76	0x3d458f42	0.048232324
77	0xbde12960	-0.1099422
78	0xbca6dea4	-0.020369835
79	0xbd6026be	-0.054724447
80	0xbdf90651	-0.12159408
81	0x3df835bb	0.12119623
82	0x3d43556a	0.04768888
83	0xbe00840e	-0.12550375
84	0x3c814f28	0.015784815
85	0xbcf3c055	-0.029754797
86	0xbd127c2a	-0.035762943
87	0xbcac88aa	-0.02106126
88	0x3d81a7f5	0.063308634
89	0xbdb5dfd1	-0.0888058
90	0x3d0b5577	0.034017053
91	0x3d476695	0.048681814
92	0x3d836d66	0.064173505
93	0x3c4f1592	0.01263942
94	0xbda91e96	-0.08257787
95	0xbd31e9b7	-0.04343578
96	0x3cf4a742	0.029864911
97	0x3c480827	0.012208975
98	0xbdbcea40	-0.09224367
99	0xbda89ee4	-0.08233431
100	0x3de81ccd	0.11333618
101	0x3daa99cf	0.08330118
102	0xbd634b69	-0.05549184
103	0xbb7607e1	-0.0037541317
104	0xbdcfb46b	-0.10141834
105	0xbc5791f9	-0.013157361
106	0xbdad3fa9	-0.08459408
107	0xbdce30c9	-0.10067899
108	0x3ca7dde5	0.02049155
109	0x3c0ac30e	0.008469356
110	0xbd6cf680	-0.05785227
111	0x3d6bb961	0.057549838
112	0xbdc9bf0c	-0.098508924
113	0x3df1c878	0.118058145
114	0x3d414c5b	0.04719196
115	0xbdd3aacb	-0.103353105
116	0xbd22e027	-0.03976455
117	0xbb11381a	-0.0022158683
118	0xbba49a9c	-0.0050233137
119	0x3d21451d	0.039372552
120	0x3d6b4dd4	0.05744727
121	0xbc5b53d0	-0.013386682
122	0xbd624242	-0.05523897
123	0x3d7574bf	0.05992579
124	0xbd9daa28	-0.0769847
125	0xbd9ec990	-0.07753289
126	0x3a0c1265	0.0005343317
127	0xbd13cce7	-0.036084082
128	0xbd5e3cf9	-0.054257367
129	0xbd894ea4	-0.06704453
130	0xbd16eec2	-0.03684879
131	0xbbfc9ee3	-0.0077093705
132	0xbd36a523	-0.04459108
133	0x3c1a728b	0.009426723
134	0x3d77d1c4	0.060502782
135	0x3c25e6d0	0.010125831
136	0xbb892c73	-0.004186207
137	0xbcb90c3b	-0.02258884
138	0x3ceba76b	0.028766355
139	0x3d203b04	0.03911878
140	0x3df6744d	0.12033901
141	0x3d50c508	0.050969154
142	0x3d834947	0.06410461
143	0xbbc706b8	-0.006073799
144	0xbdf9ae33	-0.12191429
145	0xbc956070	-0.018234462
146	0x3d3c2a9a	0.045939066
147	0xbca8b0fe	-0.020592209
148	0xbd83628e	-0.06415282
149	0xbda9bf34	-0.08288422
150	0xbdd17d1d	-0.102289416
151	0xbd84da6b	-0.064869724
152	0xba1c142a	-0.00059539324
153	0x3d03438e	0.032046847
154	0x3d4e7250	0.050401986
155	0xbdb9aa9c	-0.09065744
156	0x3d8c7b3b	0.06859442
157	0xbdc3cff3	-0.095611475
158	0x3b3b76d4	0.0028604763
159	0xbce138e0	-0.02749294
160	0xbd1b6dc9	-0.037946496
161	0xbd2938a1	-0.04131377
162	0xbdd67a86	-0.10472588
163	0xbd7c86eb	-0.061652105
164	0xbd49cdef	-0.04926866
165	0x3c898472	0.016786788
166	0xbcaa4070	-0.02078268
167	0x3d69657b	0.056981545
168	0xbdb57652	-0.088604584
169	0x3c79e6b0	0.015252754
170	0x3d87bca0	0.06627774
171	0xbd7c13b8	-0.061542243
172	0x3da986ab	0.08277639
173	0x3d6fbf20	0.05853188
174	0xbd7f39cb	-0.062310975
175	0x3d57e938	0.05271265
176	0x3c7ddb2f	0.015494152
177	0xbcd599cd	-0.026074314
178	0x3d7acc9a	0.06123028
179	0xbdc5772e	-0.09641872
180	0xbc03c32c	-0.008042138
181	0x3cb15f5d	0.021651918
182	0x3d47017f	0.04858541
183	0xba103a00	-0.0005501807
184	0x3c941ceb	0.018080195
185	0x3d80244f	0.06256925
186	0xbc876e68	-0.016532138
187	0xb77dbc0f	-1.5123761e-05
188	0xbd7dd7d8	-0.061973423
189	0x3d1d7f61	0.038451556
190	0x3d81b716	0.06333749
191	0x3daeb0ff	0.08529853
192	0xbd9e10a4	-0.07718018
193	0x3d1d75bb	0.038442355
194	0xbdc30d6c	-0.095240444
195	0xbdabc08f	-0.08386337
196	0xbd286b20	-0.041117787
197	0x3d5f1e24	0.054472104
198	0xbd199695	-0.03749712
199	0x3d4de26c	0.05026476
200	0xbbf79998	-0.0075561516
201	0x3cc5be05	0.02413846
202	0xbd6dcc7c	-0.05805634
203	0xbd780ea9	-0.060560856
204	0xbd8baea8	-0.068204224
205	0x3da698b0	0.081345916
206	0xbd592b73	-0.053019952
207	0x3db10c06	0.086448714
208	0x3d5ed406	0.05440142
209	0x3c02dc92	0.007987158
210	0x3bef2c81	0.0072990065
211	0xbd0a27c6	-0.033729337
212	0xbbbd3af5	-0.0057748505
213	0x3c743a2c	0.014906447
214	0x3c0d4380	0.00862205
215	0x3cd124fa	0.025530327
216	0xbd18dd13	-0.037320208
217	0xbd130239	-0.03589079
218	0x3dd95f21	0.106138475
219	0xbdd43585	-0.103617705
220	0xbc98a44a	-0.018633027
221	0x3dd41f01	0.10357476
222	0x3d2eb543	0.042653333
223	0x3cfb7285	0.030694256
224	0xbd917f36	-0.07104342
225	0x3cd92ba3	0.026510065
226	0xbd6a02b8	-0.0571315
227	0xbb643c02	-0.0034825807
228	0xbd61a0f5	-0.05508514
229	0xbd1607c0	-0.036628485
230	0x3cb625a2	0.022234742
231	0x3d885af6	0.066579744
232	0x3c464b51	0.012102918
233	0x3dd8fa31	0.10594595
234	0x3d21fc75	0.039547402
235	0xbd089665	-0.033346552
236	0x3c8a7eca	0.01690616
237	0xbd4881c6	-0.048951887
238	0xbc62b912	-0.0138380695
239	0x3cb5a2c4	0.02217234
240	0x3d7273e1	0.059192542
241	0x3d3058c8	0.04305342
242	0xbbe3db1d	-0.0069536106
243	0x3cbc984a	0.023021836
244	0x3d2c443f	0.042057272
245	0xbdaa110d	-0.083040334
246	0x3d5fe381	0.054660324
247	0xbde0467a	-0.10950942
248	0xbca5b3ef	-0.0202274
249	0x3c24380d	0.010023129
250	0xbd4f731e	-0.050646894
251	0x3cf0eff8	0.029411301
252	0x3dd75615	0.10514466
253	0xbbe8d476	-0.0071054054
254	0xbd984024	-0.07434109
255	0xbd4ae7d2	-0.049537487

model.decoder.attention_vect_src f4 [4, 32, 1]
0	0xbe1c15f2	-0.15242746
1	0xbe61ee4b	-0.22063558
2	0xbd599217	-0.053117838
3	0x3e982040	0.29712105
4	0x3d1ed1a0	0.038774133
5	0x3e975103	0.29553995
6	0xbce42e52	-0.027854118
7	0x3e1d5014	0.15362579
8	0xbb8655b5	-0.0040995725
9	0x3d33a27c	0.04385613
10	0xbebd97c3	-0.37029848
11	0xbec2638b	-0.3796657
12	0x3d50232d	0.050814796
13	0x3e3c0a62	0.18363336
14	0x3e7eeb93	0.24894552
15	0x3d216b01	0.039408688
16	0x3e21493f	0.15750597
17	0x3e4719f8	0.194435
18	0xbea9ed44	-0.33188832
19	0xbec1d650	-0.3785882
20	0xbe9f7105	-0.31140915
21	0xbc738f2c	-0.014865678
22	0xbe6446d1	-0.2229264
23	0xbe0998e0	-0.13437223
24	0xbd2933c0	-0.04130912
25	0x3e33a2bd	0.17542548
26	0x3d98a51e	0.074533686
27	0x3eb96d0c	0.3621601
28	0x3eb6b3f7	0.35684177
29	0xbe8c9283	-0.2745553
30	0xbd2b8ec3	-0.041884195
31	0x3d841ff9	0.06451411
32	0x3eb6aec5	0.35680214
33	0xbe011013	-0.12603788
34	0xbe232b4d	-0.15934487
35	0xbe824cd7	-0.2544925
36	0x3e919614	0.28434813
37	0xbe06a9c8	-0.13150704
38	0xbe15f9bc	-0.14646047
39	0x3e8965c9	0.26835468
40	0x3ebd1ec1	0.36937526
41	0x3b6b9617	0.0035947615
42	0xbe9277b6	-0.28606957
43	0x3eaaa40d	0.33328286
44	0xbe14dd9b	-0.14537661
45	0xbe3ce532	-0.18446806
46	0xbe8fe9a0	-0.2810793
47	0xbe489697	-0.19588695
48	0xbea1a55d	-0.31571475
49	0xbe7a9bbb	-0.24473469
50	0xbeb80273	-0.3593937
51	0xbd4819bf	-0.04885268
52	0x3e26158c	0.16219157
53	0xbe933f4a	-0.28759223
54	0x3c47d8f5	0.012197723
55	0xbe2016df	-0.15633725
56	0x3e49ed05	0.19719322
57	0x3eba5b92	0.36397988
58	0xbd903c89	-0.07042796
59	0xbe4844e6	-0.19557533
60	0xbea1ab06	-0.31575793
61	0xbe6ec50c	-0.23317355
62	0x3de2f5e6	0.11082058
63	0x3dc2d487	0.095131926
64	0x3e6d468e	0.23171446
65	0xbd465c1b	-0.048427682
66	0x3e6dd10d	0.23224278
67	0xbec11c30	-0.37716818
68	0x3d8da719	0.06916637
69	0x3ed1a180	0.40943527
70	0xbec9ffa6	-0.39452857
71	0xbe5b34a1	-0.21406795
72	0x3e6ff1d9	0.23432101
73	0xbd9bf10b	-0.07614335
74	0xbe521cb7	-0.20518766
75	0x3e830e65	0.2559692
76	0x3ca741fb	0.020417204
77	0xbbe5c346	-0.007011804
78	0xbe0b3311	-0.13593699
79	0x3ea217d1	0.31658795
80	0x3e5b6184	0.21423918
81	0x3d79c72c	0.06098096
82	0x3d394862	0.045235045
83	0x3e6bbb0c	0.23020571
84	0x3e8d7c26	0.2763378
85	0xbe330daa	-0.17485681
86	0xbcdcf849	-0.02697386
87	0x3e288830	0.16458201
88	0xbe3fffd1	-0.1874993
89	0x3ed33cf8	0.41257453
90	0xbe93b2f6	-0.28847474
91	0x3e3dbc3d	0.18528838
92	0xbe9dbde8	-0.3080895
93	0x3e20295f	0.15640782
94	0x3e900d23	0.28135023
95	0x3d7a49ff	0.061105724
96	0xbd64ea55	-0.05588754
97	0x3e8eb7b2	0.27874523
98	0xbe9f8478	-0.31155753
99	0xbe907da8	-0.28220868
100	0xbea8cb2f	-0.32967517
101	0xbe7a25b6	-0.24428448
102	0x3d031ddc	0.032010898
103	0xbe2e90ee	-0.17047474
104	0x3da7aa53	0.08186784
105	0xba99559b	-0.0011698486
106	0x3ea78289	0.32716778
107	0xbe4b3937	-0.19846044
108	0xbdc05811	-0.09391797
109	0x3e90484a	0.28180152
110	0xbdfd7c6d	-0.12377248
111	0x3ecc7b57	0.3993785
112	0xbe1c455e	-0.15260836
113	0xbcc14268	-0.023591235
114	0xbde9a1dd	-0.11407826
115	0x3e58ed06	0.21184167
116	0x3e0e3740	0.13888264
117	0xbe75ae8c	-0.23992366
118	0x3e81650f	0.25272414
119	0x3bc5e884	0.006039681
120	0xbdc86cec	-0.097864
121	0xbc6c6009	-0.014427193
122	0x3e9ca71f	0.30596253
123	0x3ed5a467	0.41726992
124	0x3e539bbf	0.20664881
125	0x3d56cb60	0.052440047
126	0x3e916f10	0.28405046
127	0xbe1a5415	-0.15071137

model.decoder.attention_vect_tar f4 [4, 32, 1]
0	0xbe40f5b8	-0.18843734
1	0xbe00ee0d	-0.12590809
2	0xbe6eba0e	-0.23313162
3	0x3e29dc0a	0.16587844
4	0x3d5250af	0.051346477
5	0xbdff1cef	-0.124566905
6	0xbd5e2ca8	-0.054241806
7	0xbc248445	-0.010041301
8	0x3eb4d68e	0.35319942
9	0x3eacfc5e	0.3378629
10	0xbeaa6e63	-0.33287343
11	0x3e18dade	0.14927241
12	0x3e14030a	0.14454284
13	0x3e18f022	0.14935353
14	0xbd397138	-0.04527399
15	0x3db3dcf8	0.08782381
16	0x3daa6a9f	0.083211176
17	0x3ed07426	0.40713614
18	0xbec43410	-0.3832097
19	0xbe277fd5	-0.16357358
20	0xbe9314c8	-0.28726792
21	0xbe2d248a	-0.1690847
22	0x3d957887	0.072983794
23	0x3e886b68	0.26644444
24	0xbe989c8d	-0.2980694
25	0x3e77f67c	0.2421512
26	0x3ebbdce7	0.36691973
27	0xbe5fd9dc	-0.2186045
28	0x3d72179e	0.059104554
29	0xbe4aa7b4	-0.19790536
30	0x3da6f899	0.08152885
31	0xbe3571cf	-0.17719196
32	0xbe05ca77	-0.13065515
33	0xbe882fc0	-0.2659893
34	0xbeb576a1	-0.3544207
35	0x3ea3cb91	0.31991246
36	0xbd4f1fd0	-0.05056745
37	0xbc31db21	-0.010855467
38	0xbe44f309	-0.19233336
39	0x3e8581c7	0.26075575
40	0xbe666702	-0.22500232
41	0xbe1d38c8	-0.15353692
42	0xbeacc7fd	-0.3374633
43	0xbeaf9bc7	-0.34298536
44	0x3eb01562	0.34391314
45	0xbea1d55d	-0.31608096
46	0xbd557b96	-0.052119814
47	0xbe05efb2	-0.13079718
48	0x3e232d79	0.15935315
49	0x3d88a35a	0.06671782
50	0xbea1a45f	-0.31570718
51	0x3ebbd1a1	0.36683372
52	0xbebfe31e	-0.37477964
53	0x3d95e938	0.073198736
54	0xbd24b53f	-0.040211912
55	0xbe165cc4	-0.14683825
56	0x3e9631c4	0.29334843
57	0x3eb33eee	0.3500895
58	0x3d896f4d	0.06710682
59	0xbe2a1e0b	-0.16613023
60	0x3ea239bb	0.3168467
61	0x3e8b30bd	0.27185622
62	0x3d8c8f2c	0.06863245
63	0xbdcf702f	-0.10128819
64	0x3caf325e	0.021386322
65	0x3eb2c15e	0.34913152
66	0x3daad4bd	0.08341358
67	0xbdc12b85	-0.09432129
68	0xbebacca4	-0.36484253
69	0xbe4a6b03	-0.19767384
70	0x3e9b241c	0.30300987
71	0x3c9f2471	0.019426556
72	0xbd285106	-0.041092895
73	0x3e0db459	0.13838328
74	0xbe8b7b38	-0.27242446
75	0xbd39b292	-0.045336314
76	0xbdb71af2	-0.08940686
77	0x3e581032	0.21099928
78	0x3ea5d38e	0.32387966
79	0x3e7193fe	0.23591611
80	0x3e95b136	0.29236764
81	0xbeb816bf	-0.35954854
82	0xbe12d736	-0.14339909
83	0x3ce77692	0.02825478
84	0xbebc2ea1	-0.36754325
85	0x3dd01bf3	0.10161581
86	0xbe84cff2	-0.259399
87	0x3e2e25ef	0.17006658
88	0x3eb02134	0.34400332
89	0xbebb8b4d	-0.36629716
90	0x3eaa6f7e	0.33288187
91	0x3e2bb13e	0.16766831
92	0xbe8a7da0	-0.2704897
93	0x3ec3091e	0.38092893
94	0xbebb2c03	-0.36557016
95	0xbe890b68	-0.26766515
96	0xbe5fc78d	-0.21853466
97	0xbd4b7c3e	-0.049679033
98	0x3d75447b	0.05987976
99	0xbe165319	-0.14680137
100	0xbebfd09f	-0.37463853
101	0xbd93088e	-0.07179366
102	0x3e94fd45	0.2909948
103	0x3e9b39bc	0.30317485
104	0x3e62ce80	0.22149086
105	0x3d46aace	0.048502736
106	0x3de434bf	0.11142873
107	0xbeaa8cbd	-0.333105
108	0x3e2fb653	0.17159395
109	0xbec39d9a	-0.38206178
110	0xbe39182d	-0.18075629
111	0xbdabac65	-0.08382491
112	0x3ea7b9a3	0.32758817
113	0xbd197841	-0.0374682
114	0xbe488f83	-0.19585995
115	0x3e00fc44	0.12596232
116	0xbeb28a96	-0.34871358
117	0xbdb660fd	-0.08905218
118	0x3dfc6369	0.123236485
119	0xbd2969aa	-0.041360535
120	0xbcf438be	-0.029812213
121	0x3e70e84b	0.23526113
122	0xbe94725e	-0.28993505
123	0xbe440f19	-0.19146384
124	0x3ece3bb8	0.40279937
125	0x3da5e960	0.081011534
126	0xbd6dd531	-0.058064643
127	0x3e59b122	0.21258977

model.decoder.bias f4 [1, 32]
0	0xbcd4ecac	-0.02599176
1	0x3cdc6b28	0.026906565
2	0xbc7fbd0b	-0.015609036
3	0xbcef09f8	-0.029179558
4	0x3cd71982	0.02625728
5	0x3cf209f1	0.029545756
6	0xbced3661	-0.028956594
7	0x3cb72a76	0.022359114
8	0xbbdaa385	-0.006672325
9	0xbcd1c80c	-0.025608085
10	0x3ce0db40	0.027448297
11	0xbd10e75a	-0.035376884
12	0x3cfe7818	0.031063125
13	0xbce15a79	-0.027508961
14	0xbcefd21f	-0.029274998
15	0x3be31964	0.006930517
16	0xbcfae29c	-0.030625634
17	0x3d0e6594	0.03476484
18	0xbcf746f4	-0.0301852
19	0xbce0c107	-0.027435793
20	0xbab0e1e8	-0.001349506
21	0xbc739bda	-0.014868701
22	0xbc880ca4	-0.01660759
23	0x3ce3778f	0.02776697
24	0x3ce18d80	0.027533293
25	0xbd02bc73	-0.031918
26	0xba8c1824	-0.0010688347
27	0xbbba82e9	-0.0056918752
28	0xbc62ee76	-0.013850799
29	0xbcda8d34	-0.026678659
30	0x3c7023c8	0.014656968
31	0x3cb1d740	0.021709085

model.decoder.hidden_r.weight f4 [32, 32]
0	0x3dc52242	0.09625675
1	0xbcf74898	-0.030185983
2	0xbd99ceb0	-0.07510126
3	0xbce7e6a5	-0.028308222
4	0x3d70d6a2	0.05879844
5	0xbcc365c5	-0.023852238
6	0x3da6c304	0.08142665
7	0xbe1a3d5b	-0.15062468
8	0xbdd12957	-0.10212963
9	0x3e0bf46a	0.13667455
10	0x3d08513f	0.033280607
11	0x3d1b8fe2	0.037979014
12	0x3d9a4da8	0.07534343
13	0xbd1f113f	-0.038834807
14	0xbd8f14de	-0.06986402
15	0x3d6f8898	0.058479875
16	0xbd324656	-0.04352411
17	0xbd9fec90	-0.078087926
18	0x3c6a3ce4	0.014296744
19	0x3d20a29f	0.039217588
20	0xbc450888	-0.01202596
21	0xbde2cf69	-0.110747166
22	0xbc295d61	-0.010337205
23	0xbddd99b0	-0.10820329
24	0x3dbdb265	0.09262542
25	0xbde8caa2	-0.11366774
26	0x3e0b903e	0.13629243
27	0x3da2beec	0.07946572
28	0xbe123f7c	-0.1428203
29	0x3e0a29d2	0.13492516
30	0xbe434e99	-0.19072951
31	0xbc3a2784	-0.01136196
32	0xbdf05829	-0.11735565
33	0xbdf25a8e	-0.11833678
34	0xb925002f	-0.00015735695
35	0xbda7c967	-0.08192711
36	0x3e02acc7	0.12761222
37	0xbe0ef29b	-0.13959734
38	0x3e2e6618	0.17031133
39	0x3de3b350	0.111181855
40	0x3e21cd1d	0.15800901
41	0xbd4ba8c2	-0.049721487
42	0xbe0351ae	-0.12824127
43	0xbdf3c4f1	-0.11902798
44	0x3e27d1f1	0.1638868
45	0xbdb629bd	-0.0889468
46	0xbc81d383	-0.015847927
47	0x3cd02e10	0.02541259
48	0x3d069e62	0.03286589
49	0xbe0e16ff	-0.1387596
50	0x3dfa6c44	0.12227681
51	0xbe0344ce	-0.12819216
52	0x3e33760a	0.17525497
53	0xbdd1ae7a	-0.10238357
54	0xbd6780a7	-0.056519177
55	0xbd08a0bf	-0.033356424
56	0x3d4639c0	0.04839492
57	0xbd11112d	-0.03541677
58	0xbe717f35	-0.23583682
59	0x3e07f160	0.13275671
60	0x3e39d648	0.18148148
61	0x3db03202	0.08603288
62	0x3e56f0d2	0.20990303
63	0x3d357c66	0.04430809
64	0xbc2b9d61	-0.010474534
65	0xbe1e7d27	-0.1547743
66	0xbe0bdcee	-0.13658497
67	0xbe12e4cb	-0.1434509
68	0xbc92e264	-0.017930217
69	0x3e037f52	0.12841538
70	0xbd67f25e	-0.056627624
71	0x3c85ea92	0.016347203
72	0x3cb51d4f	0.022108702
73	0xbe0f18e3	-0.13974337
74	0xbc1510b1	-0.009098218
75	0x3e15d2fd	0.14631267
76	0x3e062765	0.13100965
77	0x3dddd947	0.10832458
78	0xbd27fd3f	-0.041013
79	0x3a53fb04	0.00080864155
80	0x3d96e0c1	0.07367087
81	0xbd09a9e6	-0.033609293
82	0xbd7acfb8	-0.061233252
83	0x3e189f0f	0.14904426
84	0xbc98463f	-0.018588183
85	0xbe150990	-0.14554429
86	0x3dfeff30	0.12451017
87	0x3d649635	0.05580731
88	0x3df28357	0.11841457
89	0xbe381e20	-0.17980242
90	0x3d0cbd1d	0.03436004
91	0x3dad9221	0.084751375
92	0xbd441e5c	-0.047880515
93	0xbdfb30aa	-0.12265141
94	0x3df9fe2e	0.12206684
95	0x3ddfee75	0.10934154
96	0x3d4ef785	0.05052902
97	0x3d3cc5ad	0.046086956
98	0xbafc540c	-0.0019251122
99	0x3de35fea	0.111022785
100	0xbd297d92	-0.04137952
101	0xbde4b1d6	-0.11166732
102	0x3da687aa	0.081313446
103	0x3d39e57a	0.04538486
104	0x3d8e96d4	0.06962362
105	0xbc5d7cc6	-0.013518518
106	0xbd1745c5	-0.03693177
107	0xbc0da82c	-0.008646052
108	0x3d189ba2	0.037257798
109	0xbe059b50	-0.13047528
110	0xbe1fd5fa	-0.1560897
111	0x3d9df4db	0.07712718
112	0xbdb66aef	-0.08907115
113	0xbca9b419	-0.02071576
114	0x3d5652f5	0.052325208
115	0x3cdda346	0.027055394
116	0x3df0290d	0.1172658
117	0x3c7df108	0.015499361
118	0x3d190794	0.037360743
119	0xbcd57fc2	-0.026061896
120	0x3ca0ae69	0.019614415
121	0x3d8a371a	0.06748791
122	0x3ddf9db3	0.109187506
123	0xbe273731	-0.16329648
124	0xbd8d4f79	-0.06899924
125	0xbe1e4987	-0.15457736
126	0xbd547457	-0.051868763
127	0x3dcfbf01	0.10143853
128	0xbe2e7e21	-0.17040302
129	0xbe155937	-0.14584814
130	0x3dad9217	0.0847513
131	0xbdb68158	-0.08911389
132	0x3dee3f52	0.11633171
133	0x3d21cdf1	0.03950304
134	0x3d3a5679	0.045492623
135	0x3e034c5f	0.12822102
136	0xbe342f5c	-0.17596191
137	0x3e128769	0.14309467
138	0x3d7e78f1	0.062127057
139	0xbdd6cf65	-0.10488776
140	0x3d3c1b37	0.04592439
141	0xbd029e57	-0.031889286
142	0xbd662c6c	-0.056194708
143	0xbab53dc4	-0.0013827612
144	0xbd8cc772	-0.06873979
145	0x3e0d9b6d	0.13828821
146	0x3e14c3eb	0.14527862
147	0xbc4943fb	-0.012284274
148	0xbe140ac3	-0.1445723
149	0xbb5de93c	-0.0033860942
150	0x3c95a604	0.018267639
151	0x3dcd596d	0.10026822
152	0xbc0d9460	-0.008641332
153	0x3d8390d3	0.064241074
154	0x3cea5e74	0.028609492
155	0xbdb70efa	-0.089384034
156	0xbdc4c03c	-0.09606978
157	0xbe17672d	-0.14785452
158	0x3cac238f	0.02101305
159	0x3d1a5e84	0.037687793
160	0xbbdf6ca1	-0.0068183695
161	0x3e3b3b16	0.18284258
162	0xbd330ce6	-0.043713473
163	0xbda520c0	-0.08062887
164	0xbbef136b	-0.007296016
165	0xbda5e2af	-0.08099877
166	0xbd176cb6	-0.03696891
167	0x3e08239a	0.13294831
168	0xbd076fa4	-0.033065453
169	0x3e406632	0.18788984
170	0xbbd4fca6	-0.0064998446
171	0xbce2b697	-0.027674956
172	0x3dfe0edd	0.12405179
173	0xbd86bf16	-0.065794155
174	0x3d2c1c42	0.042019136
175	0x3d789375	0.0606875
176	0x3deaf599	0.11472625
177	0xbe4d8101	-0.20068742
178	0x3c4f739f	0.012661844
179	0xbc6a4b6d	-0.0143002095
180	0x3e1545ed	0.14577456
181	0x3daef6f5	0.08543197
182	0x3dcfc904	0.101457626
183	0x3d91e5e7	0.071239285
184	0xbd97451e	-0.0738623
185	0x3cc81a46	0.02442659
186	0x3df6a48b	0.12043103
187	0xbdea75ac	-0.114482254
188	0xbdb706bc	-0.08936831
189	0x3d59aba7	0.053142216
190	0xbd725b31	-0.059169
191	0xbcb0209d	-0.021499926
192	0x3e11d014	0.14239532
193	0x3bcd00f5	0.0062562176
194	0xbe342e6a	-0.1759583
195	0xbd9170bb	-0.0710158
196	0x3e24055b	0.16017668
197	0xbd427aa9	-0.04748026
198	0xbdbacce9	-0.09121115
199	0x3d9f6d55	0.07784525
200	0x3c6862e4	0.014183734
201	0xbe18f38b	-0.14936654
202	0x3e22230f	0.15833686
203	0x3dd5a54b	0.10431918
204	0x3e26c282	0.16285136
205	0x3daf380b	0.08555611
206	0xbd57a689	-0.052649055
207	0xbd2449d4	-0.04010947
208	0x3dbd7399	0.09250564
209	0xbd197732	-0.03746719
210	0x3c8b1c14	0.016981162
211	0xbe355616	-0.1770862
212	0xbda7a532	-0.081858054
213	0x3d802ac8	0.0625816
214	0xbc292a91	-0.01032509
215	0xbdaedd32	-0.085382834
216	0xbe243e01	-0.16039278
217	0x3def1f50	0.11675894
218	0xbd7d169d	-0.061789144
219	0xbe2e7134	-0.17035371
220	0x3e31fa17	0.17380558
221	0x3db2e10e	0.08734332
222	0xbd868ff8	-0.065704286
223	0xbe0d2241	-0.13782598
224	0x3e46c909	0.19412626
225	0x3b063589	0.0020478687
226	0xbe001a22	-0.12509969
227	0x3e07ba23	0.132546
228	0xbd83cfbc	-0.064361066
229	0xbc96440a	-0.01834299
230	0xbd941534	-0.07230607
231	0xbe3540df	-0.17700528
232	0xbe0a648b	-0.13514917
233	0x3c1ecde6	0.009692645
234	0xbe1812b6	-0.14850888
235	0x3e4fdcda	0.20299092
236	0xbcbdca68	-0.023167804
237	0xbd185dfe	-0.037199013
238	0x3dd1c428	0.10242492
239	0xbe19567d	-0.14974399
240	0xbd75c33d	-0.060000647
241	0x3d208e37	0.039198127
242	0xbe004c69	-0.12529148
243	0x3dce20fa	0.100648835
244	0x3d216f03	0.03941251
245	0xbdf518e8	-0.11967641
246	0xbe1dc4fc	-0.15407175
247	0x3d09c75e	0.033637397
248	0x3d5e2cb8	0.054241866
249	0xbc027eba	-0.007964784
250	0xbe28a7a2	-0.16470197
251	0xbda09f26	-0.07842855
252	0x3d49e253	0.049288105
253	0x3d095485	0.03352787
254	0x3d33ce71	0.04389805
255	0x3968ad16	0.00022189724

model.decoder.hidden_i.weight f4 [32, 32]
0	0xbe0afa54	-0.13572055
1	0xbd78b2c2	-0.06071735
2	0xbd009766	-0.031394385
3	0xbe4fe9a9	-0.20303978
4	0xbd8fbe3a	-0.07018705
5	0x3d2a7a86	0.041620754
6	0xbd84e39c	-0.064887255
7	0xbdd122f2	-0.102117434
8	0x3cda7362	0.026666347
9	0x3d11d99a	0.03560791
10	0x3e6c4e92	0.23076847
11	0x3dbeeb01	0.09322167
12	0xbd449ab6	-0.047999106
13	0xbdd898c3	-0.10576012
14	0xbe1d6d86	-0.15373811
15	0x3d8fb088	0.070160925
16	0x3ad9bd13	0.0016612135
17	0x3db87286	0.090062186
18	0x3ca2db13	0.019879853
19	0x3d7a22bf	0.061068293
20	0xbe150555	-0.14552815
21	0x3d83e883	0.064408325
22	0x3da42a9b	0.08015939
23	0x3d9df269	0.07712252
24	0xbdbbdfae	-0.09173523
25	0xbe2cb9fc	-0.16867822
26	0x3d81af3e	0.06332253
27	0x3cdb260e	0.026751544
28	0x3debfd19	0.11522884
29	0x3d149709	0.03627685
30	0x3dd7a035	0.10528604
31	0x3d4d2304	0.05008222
32	0x3d280a41	0.041025404
33	0xbce2f50e	-0.027704742
34	0x3cc94b26	0.024571966
35	0xbe26d0ff	-0.16290663
36	0x3d9ed024	0.077545434
37	0x3e369012	0.17828396
38	0x3dcd80eb	0.10034355
39	0x3d321154	0.043473557
40	0x3d4ab13c	0.04948543
41	0xbe2f207b	-0.17102234
42	0x3e1afdb3	0.15135841
43	0x3d2a0213	0.041505884
44	0x3e1604f8	0.14650333
45	0xbe7cfce4	-0.24705845
46	0xbe56a28b	-0.20960443
47	0x3ddfdcc1	0.10930777
48	0xbdce9e7f	-0.100888245
49	0x3e4390f3	0.19098262
50	0x3d841d16	0.0645086
51	0xbdfa6644	-0.12226537
52	0xbe28965b	-0.16463606
53	0xbe797e0f	-0.24364494
54	0x3aa8970b	0.0012862397
55	0x3e1dec0d	0.15422077
56	0x3d3a7cec	0.04552929
57	0xbe7d9580	-0.24764061
58	0xbe1301e0	-0.14356184
59	0xbd9da283	-0.07697012
60	0x3b8dbac5	0.004325243
61	0xbe06b6d6	-0.13155684
62	0xbde54897	-0.11195486
63	0xbd46a118	-0.048493475
64	0x3e5734fa	0.21016303
65	0x3d430de5	0.047620673
66	0xbe082014	-0.13293487
67	0xbcbf9e6f	-0.023390977
68	0xbe502a6f	-0.20328687
69	0xbd3f0434	-0.046634868
70	0xbcdc6df7	-0.026907904
71	0xbdaccb85	-0.08437256
72	0xbd17be95	-0.037046988
73	0xbdc47b9d	-0.0959389
74	0xbe34843a	-0.17628565
75	0xbd6688f8	-0.056282967
76	0xbe07258f	-0.13197921
77	0x3ddad8f3	0.10685911
78	0x3ba0fd9a	0.004913044
79	0x3c4736d2	0.012159066
80	0x3d5e1d6b	0.054227274
81	0x3d92774e	0.07151662
82	0xbca6a371	-0.020341607
83	0x3e6408a1	0.22268917
84	0xbda61af5	-0.081106104
85	0xbd8196ba	-0.06327577
86	0x3dd953ee	0.106117114
87	0xbe17e808	-0.14834607
88	0x3c994d52	0.018713627
89	0xbd1ba973	-0.038003396
90	0x3d76a229	0.06021324
91	0x3e553a27	0.20822965
92	0x3d683ecb	0.05670051
93	0x3dd156c3	0.102216266
94	0x3e1218e6	0.1426731
95	0x3d1fc2f9	0.0390043
96	0xbe58ca7c	-0.21170992
97	0x3b8dc42d	0.0043263645
98	0xbe222996	-0.15836176
99	0x3da4fd8f	0.08056175
100	0x3c9aaff9	0.018882738
101	0x3d4dba21	0.050226334
102	0xbe03954a	-0.12849918
103	0xbd27a943	-0.040932905
104	0x3cdc8b6f	0.026921956
105	0x3dbe67b2	0.09297122
106	0xbd546fc1	-0.05186439
107	0xbd24d4e8	-0.040242106
108	0x3e5d7899	0.21628036
109	0x3dda32aa	0.10654195
110	0xbdb840af	-0.089967124
111	0x3e3641d0	0.17798543
112	0x3c2bb0e6	0.010479188
113	0x3e63a95c	0.22232574
114	0xbd5d4abb	-0.054026347
115	0xbe412176	-0.1886042
116	0xbda908c7	-0.08253627
117	0x3c7f0fd1	0.015567736
118	0x3d81c346	0.063360736
119	0xbe08d2a8	-0.13361609
120	0x3e4530e4	0.19256932
121	0xbe58080b	-0.21096818
122	0x3dda0166	0.10644798
123	0x3e0cb69f	0.1374154
124	0xbbe2c35d	-0.006920262
125	0xbdb73b69	-0.089468785
126	0x3debaa5c	0.11507103
127	0xbaa3553d	-0.0012461316
128	0xbe4739b0	-0.194556
129	0xbe02030d	-0.12696476
130	0x3db67377	0.08908742
131	0x3d45e7cb	0.048316758
132	0x3d9c34ea	0.0762728
133	0xbdc1ecd5	-0.09469
134	0xbe5d9bc1	-0.21641447
135	0x3d50f2e8	0.051012903
136	0x3e0d6e9f	0.1381173
137	0xbe4157c8	-0.18881142
138	0x3dcad51b	0.09903928
139	0xbe3f2bf7	-0.18669115
140	0x3e408828	0.1880194
141	0xbe07ec8b	-0.13273828
142	0xbe01531d	-0.12629361
143	0xbe35ed00	-0.1776619
144	0xbe79d69a	-0.2439827
145	0x3dcd525e	0.10025476
146	0xbd324b2a	-0.043528713
147	0x3cb9b2e7	0.022668315
148	0xbe5e551b	-0.21712153
149	0xbd5d5a42	-0.054041155
150	0xbda065e3	-0.07831933
151	0x3e2716a7	0.16317235
152	0xba92bf8d	-0.0011196003
153	0xbcaa7f8b	-0.02081277
154	0x3dbaa2a8	0.091130555
155	0x3d04c1bb	0.03241132
156	0xbe033024	-0.12811333
157	0xbcb8e7e9	-0.02257152
158	0xbbca9776	-0.0061826063
159	0x3df7a5a3	0.120921396
160	0xbd5d8888	-0.054085284
161	0xbe295235	-0.16535266
162	0xbdc0c871	-0.09413231
163	0xbde24256	-0.11047809
164	0xbdfe6e3c	-0.12423369
165	0x3c9ccce6	0.019140672
166	0xbd4e9d09	-0.05044273
167	0xbddb602c	-0.10711703
168	0xbcc83634	-0.024439909
169	0xbcc12ecd	-0.023581887
170	0x3d855417	0.065101795
171	0xbe072895	-0.13199075
172	0xbd830e03	-0.06399157
173	0xbdd39d73	-0.103327654
174	0x3cd8f828	0.026485518
175	0x3b5e9b49	0.003396707
176	0x3b0606e9	0.0020450896
177	0x3e2c60f3	0.16833858
178	0xbd5fae5b	-0.054609638
179	0x3d2fad23	0.042889725
180	0x3d38a9a7	0.045083668
181	0x3e1a82fb	0.15089028
182	0x3e2dc2ad	0.16968794
183	0xbbfe3a42	-0.0077584097
184	0xbdad0c08	-0.084495604
185	0x3db14be5	0.08657054
186	0x3e01686d	0.12637492
187	0xbaac8b8c	-0.0013164147
188	0x3e0b7352	0.1361821
189	0x3e3e78c5	0.18600757
190	0xbe0819d4	-0.13291103
191	0xbd556c6c	-0.052105352
192	0xbe63d7b9	-0.2225026
193	0x3d62dd1d	0.05538665
194	0x3dea2ca9	0.114342995
195	0xbdcc28ec	-0.09968743
196	0x3da67d5c	0.08129379
197	0x3dff74bb	0.124734364
198	0xbd77b4ad	-0.06047504
199	0x3e507ed0	0.20360875
200	0x3ca32276	0.019913893
201	0xbe7bf653	-0.24605684
202	0xbe0c9bd5	-0.1373132
203	0xbe7e226f	-0.24817823
204	0x3d8279b0	0.06370866
205	0x3d008402	0.031375892
206	0xbdbdde8f	-0.09270965
207	0x3e23f221	0.16010334
208	0xbdd62e0b	-0.10458001
209	0x3dd43068	0.10360795
210	0x3dd5b945	0.10435728
211	0x3cfa80fb	0.03057908
212	0xbd82612c	-0.0636619
213	0x3dceb72e	0.100935325
214	0xbe26b0d9	-0.162784
215	0x3ddbcbef	0.107322566
216	0x3e3e10c3	0.18561082
217	0xbe3c272d	-0.1837432
218	0xbe112dd1	-0.14177634
219	0xbbe82c21	-0.0070853387
220	0xbe0d637b	-0.1380748
221	0xbe271691	-0.16317202
222	0x3d30cd4d	0.04316454
223	0xbd689aa3	-0.056788098
224	0x3e2a4282	0.16626933
225	0xbd01b764	-0.031669036
226	0xbd2000ed	-0.039063383
227	0x3e4141a8	0.18872702
228	0x3d29d7f3	0.04146571
229	0xbd009778	-0.03139445
230	0xbdb05660	-0.08610225
231	0x3e0018f2	0.12509516
232	0xbd538432	-0.051639743
233	0x3e381214	0.17975646
234	0xbbfdb28f	-0.007742233
235	0x3e16e7e4	0.14736897
236	0x3dcfcfd5	0.10147063
237	0xbdac9fcb	-0.084289156
238	0xbd6f6310	-0.058444083
239	0xbe3e4fca	-0.18585125
240	0x3e47d906	0.19516382
241	0x3de51fef	0.111877315
242	0xbd17c2f0	-0.03705114
243	0xbcfe682c	-0.031055532
244	0x3d816a5b	0.06319114
245	0x3e269e00	0.1627121
246	0x3d2c036e	0.04199546
247	0xbd0325d2	-0.03201849
248	0xbe2eeae8	-0.17081797
249	0x3e3baa56	0.18326697
250	0xbdd84e65	-0.105618276
251	0xbe2e10ac	-0.16998547
252	0xbd81da86	-0.06340508
253	0x3dc8c6c9	0.0980354
254	0x3d42d503	0.047566425
255	0x3d132507	0.035923984

model.decoder.hidden_m.weight f4 [32, 32]
0	0x3d9efe16	0.07763307
1	0x3e1e9467	0.15486299
2	0x3e19287e	0.14956853
3	0x3e334276	0.17505822
4	0xbdeb9ef4	-0.11504927
5	0x3c93ca4c	0.018040799
6	0xbddfdbb2	-0.109305754
7	0xbc5aeb5f	-0.013361781
8	0x3e0849ff	0.13309477
9	0x3ddbb081	0.10727025
10	0xbe27d2c6	-0.16388997
11	0xbd6941f9	-0.056947682
12	0xbe1d17a6	-0.15341052
13	0x3dd53bb4	0.10411778
14	0xba8dc7c6	-0.0010816983
15	0xbdef3789	-0.11680514
16	0xbd121d40	-0.035672426
17	0x3d22a34d	0.039706517
18	0x3c7f8bdc	0.01559731
19	0x3e29bb34	0.16575319
20	0x3c83b911	0.016079457
21	0x3d8cec87	0.068810515
22	0xbd38e977	-0.045144524
23	0x392b23fa	0.00016321233
24	0xbc644672	-0.013932811
25	0x3e2dfff7	0.16992174
26	0x3d5b7dbd	0.05358671
27	0xbda9c7ab	-0.08290037
28	0xbe0e7fb0	-0.13915896
29	0xbe1a5bea	-0.15074125
30	0xbd22eb9f	-0.039775487
31	0x3a5c13e1	0.0008395296
32	0x3e0d3bb0	0.137923
33	0xbcaaaf75	-0.020835618
34	0x3d93fd6d	0.072260715
35	0x3d3b0fa4	0.045669213
36	0xbdbb3f6d	-0.09142957
37	0xbdd49466	-0.10379867
38	0x3d89d37a	0.06729789
39	0x3e001809	0.12509169
40	0xbd6ef986	-0.058343433
41	0xbc7bfce8	-0.015380122
42	0xbe0866cc	-0.13320464
43	0xbd2aa12c	-0.04165761
44	0x3d8b6351	0.068060525
45	0xbd22d56d	-0.03975432
46	0xbd94b76a	-0.07261546
47	0x3da73010	0.08163464
48	0xbdb8de60	-0.0902679
49	0x3e32357b	0.17403214
50	0xbe271cb8	-0.16319549
51	0xbe197587	-0.1498624
52	0xbe4518c8	-0.19247735
53	0xbe4a39f3	-0.19748668
54	0x3dcc2e86	0.09969811
55	0xb9fec70f	-0.00048594965
56	0xbdbec45a	-0.09314795
57	0xbbea544d	-0.0071511627
58	0xbe1e4956	-0.15457663
59	0xbcf9379c	-0.030422024
60	0x3d2f9ab8	0.04287216
61	0xbda4a927	-0.08040076
62	0x3dbd2222	0.09235026
63	0x3d9ec654	0.07752672
64	0xbe235f1a	-0.15954247
65	0x3d1303ab	0.03589217
66	0x3de3e7c5	0.11128191
67	0xbd4e9d51	-0.050442997
68	0x3d2e30d3	0.04252703
69	0x3d5015c6	0.050802015
70	0x3d16bfec	0.036804125
71	0x3d882926	0.066484734
72	0xbe0c7af4	-0.13718778
73	0x3ddbcad6	0.10732047
74	0x3ddcbcc0	0.10778189
75	0xbbc959d8	-0.0061447434
76	0x3d0893b1	0.033343975
77	0xbe320d65	-0.17387922
78	0xbd9ad479	-0.07560057
79	0xbad76aa9	-0.0016434985
80	0x3c9a3320	0.018823206
81	0xbd8c3b80	-0.06847286
82	0xbaf9928a	-0.0019040864
83	0xbd9b8613	-0.07593932
84	0x3dd03ec0	0.101682186
85	0xbe32b08d	-0.17450161
86	0xbc2f668a	-0.0107056
87	0x3e138968	0.14407885
88	0xbde10160	-0.109865904
89	0xbd0ef621	-0.034902696
90	0x3d8cd8f7	0.0687732
91	0x3d922d77	0.07137578
92	0x3bffe8b0	0.007809721
93	0x3d8b9afb	0.068166696
94	0xbe00f929	-0.12595047
95	0x3e36232e	0.17786857
96	0x3c4604f4	0.012086142
97	0x3dee1d33	0.11626663
98	0x3d1171f2	0.035509057
99	0xbb92f41f	-0.004484668
100	0x3d8b1b03	0.067922615
101	0x3e1d964f	0.1538937
102	0x3e3cbe60	0.18431997
103	0xbe20a1cd	-0.15686722
104	0x3bc085e0	0.005875334
105	0xbdeb58b1	-0.11491526
106	0x3db54e52	0.08852829
107	0x3e0e01e6	0.13867912
108	0xbe0f9548	-0.1402179
109	0x3a6c5352	0.0009015101
110	0x3e0c110e	0.13678381
111	0x3dff2480	0.12458134
112	0xbdf569d9	-0.119830795
113	0x3dda0f45	0.10647444
114	0xbce6b44a	-0.02816214
115	0xbe165749	-0.14681734
116	0x3d327ae0	0.043574214
117	0x3da86858	0.08223027
118	0x3dd1a5ca	0.102367
119	0xbe0a1f13	-0.13488416
120	0xbe0fe223	-0.14051108
121	0xbde078d4	-0.10960546
122	0x3db850e9	0.089998074
123	0xbe15930e	-0.14606878
124	0x3bf640b1	0.007515036
125	0xbd2fa49b	-0.04288159
126	0x3dc32186	0.095278785
127	0x3cb89017	0.022529645
128	0xbdcf3140	-0.101168156
129	0x3cf32cb0	0.029684395
130	0x3e2c3f64	0.16821057
131	0x3c66b9c1	0.014082373
132	0xbd9d3dbc	-0.076777905
133	0x3caf31aa	0.021385986
134	0xbe333de2	-0.17504075
135	0xbdd4c436	-0.10388987
136	0xbce5bc9d	-0.02804404
137	0xbdfc0fc7	-0.12307697
138	0x3e27ad41	0.16374685
139	0x3cac403c	0.021026723
140	0x3e1e03ca	0.15431133
141	0xbd6883b7	-0.056766238
142	0xbd213d2f	-0.03936499
143	0x3d346009	0.0440369
144	0xbd87a175	-0.06622592
145	0xbd3842ba	-0.04498551
146	0xbe3c935e	-0.18415591
147	0x3df75b82	0.120780006
148	0x3e18bac9	0.14915003
149	0xbe376a2f	-0.179116
150	0xbd6e0126	-0.058106564
151	0xbdf6c2e5	-0.12048892
152	0xbd6ac628	-0.057317883
153	0x3dfbe129	0.12298805
154	0x3dcb881a	0.09938069
155	0xbcb39c9c	-0.021925263
156	0x3d84f36a	0.0649174
157	0x3d31c43f	0.043400045
158	0x3da80a22	0.08205058
159	0xbe0141e2	-0.12622789
160	0x3d69ea44	0.05710818
161	0xbe160fb0	-0.14654422
162	0xbe0987d2	-0.13430718
163	0xbd389e82	-0.04507304
164	0xbd0cf9e8	-0.034418017
165	0xbe40bf4c	-0.18822974
166	0xbbf45409	-0.007456307
167	0x3c44a40f	0.012002005
168	0xbdb53ace	-0.08849107
169	0x3d9e46a3	0.07728317
170	0x3e1f2da1	0.1554475
171	0xbc371403	-0.011174205
172	0xbdcbbdc2	-0.09948303
173	0xbe0b58a9	-0.1360804
174	0xbde018da	-0.1094224
175	0xbd9d0022	-0.07666041
176	0xbde2ca3a	-0.11073728
177	0xbdb2d414	-0.08731857
178	0x3dbe2f93	0.09286418
179	0x3d5c940a	0.05385212
180	0x3e35c9a1	0.17752697
181	0x3e409683	0.18807416
182	0xbd51f5cb	-0.051259797
183	0xbdaf6b7e	-0.085654244
184	0x3b962ee5	0.004583227
185	0xbdf9e6d2	-0.122022286
186	0x3d9e57d5	0.077315964
187	0xbc69ca91	-0.014269487
188	0xbe05e649	-0.13076128
189	0xbdf59f39	-0.1199326
190	0xbdbdb833	-0.09263649
191	0x3cdf8f39	0.027289974
192	0x3e13dd58	0.14439905
193	0x3df6ad44	0.120447665
194	0xbcec1ca0	-0.028822243
195	0xbdf51d9e	-0.1196854
196	0xbd8a6866	-0.06758194
197	0xbdd63d9c	-0.1046097
198	0xbd0e3319	-0.0347167
199	0xbe1921a6	-0.14954242
200	0x3de11e78	0.109921396
201	0xbe3931bf	-0.18085383
202	0xbdecb880	-0.11558628
203	0x3dd87be4	0.10570505
204	0xbe10f093	-0.14154272
205	0x3cdb0d11	0.026739629
206	0x3df108f0	0.11769283
207	0x3e1c7ebc	0.1528272
208	0x3d993b4e	0.074820146
209	0xbd134c9b	-0.03596173
210	0x3dea3f55	0.11437861
211	0xbb2a9e9d	-0.0026034482
212	0xbd890a15	-0.06691376
213	0xbb9de112	-0.0048180902
214	0x3cfba3a3	0.030717677
215	0x3e047ffb	0.12939446
216	0x3db52397	0.08844679
217	0x3d92b2d0	0.07163012
218	0x3d5fefb9	0.054671977
219	0xbcabc5e8	-0.020968392
220	0x3d7ac87f	0.061226364
221	0x3d082958	0.033242553
222	0xbe4bfa74	-0.19919759
223	0x3d3616ff	0.044455525
224	0xbdc4efe7	-0.0961607
225	0xbdaca419	-0.08429737
226	0x3d853804	0.06504825
227	0x3c73c3d3	0.014878231
228	0x3d37e3fe	0.044895165
229	0xbd88e725	-0.06684712
230	0x3d75c49e	0.060001962
231	0x3e37f4c3	0.17964463
232	0x3cc3713b	0.023857703
233	0x3d6896ba	0.05678437
234	0xbe0b7452	-0.13618591
235	0x3db6b4a0	0.0892117
236	0x3dacf102	0.08444406
237	0x3d821aec	0.06352791
238	0x3d60ea93	0.054911207
239	0xbd20c070	-0.039246023
240	0xbce9cd9f	-0.02854043
241	0x3e3fafd4	0.18719417
242	0x3dd65599	0.10465545
243	0xbe11360c	-0.14180773
244	0x3e02abdd	0.12760873
245	0x3e29a6cb	0.16567533
246	0x3c9cb6cb	0.019130131
247	0xbdec5415	-0.11539475
248	0x3d503558	0.050832123
249	0xbd4b5e2b	-0.049650352
250	0x3e02f26b	0.12787788
251	0xbe3e154f	-0.18562816
252	0x3cf97ae5	0.030454108
253	0xbc9280b4	-0.017883636
254	0x3c8fa690	0.017535478
255	0x3e0ca7a2	0.13735822

model.decoder.input_r.weight f4 [32, 15]
0	0xbe7ea749	-0.24868502
1	0x3d609705	0.054831523
2	0xbe5878d1	-0.21139838
3	0xbda8413e	-0.08215569
4	0xbe017131	-0.12640835
5	0xbc9ac682	-0.018893484
6	0x3da30da4	0.07961586
7	0xbe408858	-0.18802011
8	0xbd80f3e3	-0.06296518
9	0xbd231207	-0.039812114
10	0xbe1639e4	-0.14670521
11	0x3d86df0e	0.06585513
12	0x3deda5be	0.116038784
13	0xbe5e70de	-0.21722743
14	0x3e4f640c	0.20253009
15	0x3e3887eb	0.18020599
16	0xbda48da3	-0.080348276
17	0x3d148897	0.036263075
18	0x3d3587b7	0.04431888
19	0xbcbfe7f1	-0.023426028
20	0xbe182513	-0.14857893
21	0x3e4b9be1	0.19883682
22	0x3ddeb741	0.10874797
23	0xbe40d391	-0.18830706
24	0xbe7e7e2a	-0.24852815
25	0x3e788976	0.24271187
26	0x3cc8d7ac	0.024516903
27	0xbd427c27	-0.047481682
28	0x3e68143a	0.22663966
29	0x3d97d141	0.07412959
30	0x3df626c2	0.12019111
31	0x3e6e1ac6	0.23252401
32	0x3bfc11d6	0.007692556
33	0x3e7d68e5	0.24747045
34	0xbe35b4aa	-0.17744699
35	0xbdf5d9be	-0.12004422
36	0x3cdc0013	0.026855504
37	0xbd7196fc	-0.05898188
38	0x3d9d1163	0.07669332
39	0xbd878546	-0.06617217
40	0x3d8ce542	0.06879665
41	0xbda2da3d	-0.07951782
42	0x3e34f8fe	0.17673108
43	0xbc9b87c2	-0.018985633
44	0x3d02ffb8	0.031982154
45	0x3e37303d	0.17889495
46	0x3e76b295	0.24091561
47	0x3e72d38e	0.23713514
48	0xbe65c6d9	-0.22439136
49	0xbdf51c58	-0.11968297
50	0xbd1e822c	-0.03869836
51	0xbda9ac72	-0.082848445
52	0x3e001a21	0.12509967
53	0x3dd1e280	0.102482796
54	0xbd0b79db	-0.034051757
55	0xbb835258	-0.004007619
56	0x3d74be58	0.05975184
57	0x3e44cced	0.19218798
58	0x3e4107a5	0.18850572
59	0xbe0b8832	-0.13626173
60	0xbe17c477	-0.14821039
61	0x3d869984	0.065722495
62	0xbd2c2b25	-0.042033333
63	0xbe2b5beb	-0.16734283
64	0xbe81c1ab	-0.2534307
65	0x3cf5528f	0.029946594
66	0xbdb25322	-0.087072626
67	0xbe047e1c	-0.12938732
68	0x3cfa2857	0.030536814
69	0x3e8cab76	0.27474564
70	0x3e4b7e16	0.19872317
71	0x3e26da3b	0.16294186
72	0xbe4f78d8	-0.20260942
73	0x3e28ca08	0.16483319
74	0x3df1fc1c	0.11815664
75	0x3d6c0ca6	0.05762925
76	0xbdbe4167	-0.09289818
77	0xbd07fd02	-0.03320027
78	0xbe26ca27	-0.16288052
79	0xbda4f1ab	-0.08053907
80	0xbd8d517c	-0.069003075
81	0xbd8227a8	-0.0635522
82	0xbe72f1c8	-0.23725045
83	0x3d85d833	0.06535377
84	0xbe611dd6	-0.21984038
85	0xbe627232	-0.22113875
86	0x3e0d0544	0.1377154
87	0xbe494ee7	-0.19659005
88	0x3e855946	0.26044673
89	0x3e5e625a	0.21717206
90	0xbdc70030	-0.09716833
91	0xbd733cdd	-0.059384216
92	0xbe5939c8	-0.21213448
93	0xbc2e20bb	-0.010627921
94	0x3cca7b78	0.024717078
95	0xbdffa266	-0.12482147
96	0x3da418f9	0.08012576
97	0x3b8e040a	0.0043339776
98	0xbd9c5d98	-0.07635039
99	0x3d295212	0.041338034
100	0xbe880fa6	-0.2657444
101	0xbe387f8c	-0.18017405
102	0x3c9303eb	0.017946204
103	0x3e900233	0.28126678
104	0xbe27a5e5	-0.16371877
105	0x3e0bcb18	0.13651693
106	0xbbb24bf0	-0.0054411814
107	0xbe0f8bf3	-0.1401823
108	0xbc569d96	-0.013099095
109	0x3dc8836b	0.09790691
110	0x3c85e642	0.016345147
111	0x3e5b09f4	0.21390516
112	0xbc9f2404	-0.019426353
113	0xbe1e4355	-0.15455373
114	0x3e6e85c0	0.23293209
115	0xbdd288f7	-0.1028003
116	0x3e45f642	0.19332221
117	0x3e06d8e4	0.13168675
118	0x3dae2974	0.08504
119	0xbe77580c	-0.24154681
120	0xbe7a6a45	-0.24454601
121	0x3e06b10b	0.13153474
122	0x3d93bdf0	0.07213962
123	0x3e257faf	0.16161989
124	0xbe4bc132	-0.19897917
125	0x3b3ea4bd	0.002908989
126	0x3e68f839	0.2275094
127	0x3de4840b	0.11157998
128	0x3e3ac019	0.18237342
129	0x3e4e8c90	0.20170808
130	0xbd60092b	-0.054696243
131	0xbe3a9905	-0.18222435
132	0xbe27095f	-0.16312169
133	0x3d4c39a3	0.049859654
134	0xbdc00ae5	-0.09377078
135	0x3cffb1a5	0.031212637
136	0x3d91cc7f	0.07119083
137	0x3e42911f	0.19000672
138	0x3e059fd4	0.13049251
139	0x3dfe95c6	0.12430911
140	0xbc7f23fc	-0.015572544
141	0x3df26600	0.11835861
142	0xbe0dd138	-0.13849342
143	0xbd93d75f	-0.07218813
144	0xbd81eda2	-0.06344153
145	0xbdf5ab9a	-0.11995621
146	0x3e527188	0.20551121
147	0x3c62a52b	0.013833324
148	0x3d5c563d	0.05379318
149	0x3ca0c308	0.019624248
150	0x3c73dae1	0.014883728
151	0xbdf44073	-0.11926355
152	0xba305fe0	-0.00067281537
153	0xbe622354	-0.22083789
154	0xbdd84d0a	-0.10561569
155	0x3e2e17a0	0.170012
156	0xbe787520	-0.2426343
157	0x3c6de0e8	0.014518954
158	0x3d7da4db	0.061924797
159	0xbe6bc37f	-0.23023795
160	0x3d8d0644	0.06885961
161	0x3dd4a4c6	0.103829905
162	0x3e4cabfb	0.1998748
163	0x3cb459f9	0.022015559
164	0x3e627732	0.22115782
165	0x3c41418e	0.011795415
166	0x3dce199c	0.10063478
167	0x3da14a8f	0.07875549
168	0xbe564ffd	-0.2092895
169	0xbd8f2592	-0.06989588
170	0xbe63ed1f	-0.22258423
171	0x3e4e0588	0.20119298
172	0x3dd5c29d	0.1043751
173	0xbda00bc8	-0.07814747
174	0xbd771bd3	-0.06032927
175	0x3d943a52	0.07237686
176	0xbe680307	-0.22657405
177	0x3cb25697	0.021769805
178	0x3dbbbfd2	0.09167446
179	0x3d0cf279	0.034410927
180	0xbd3b3364	-0.045703307
181	0x3e1383d3	0.14405756
182	0x3db9179a	0.09037705
183	0xbe7bae6d	-0.24578257
184	0x3e0e6b26	0.13908061
185	0xbe6f8a9f	-0.23392724
186	0x3e1c066a	0.15236822
187	0x3e6ac3f3	0.22926311
188	0xbcc62dbe	-0.024191733
189	0xbde31aec	-0.11089119
190	0xbe1ea19e	-0.1549134
191	0xbdb6e836	-0.089310095
192	0xbc9ee67f	-0.019397018
193	0xbe2bb511	-0.1676829
194	0x3e6fd1a4	0.23419815
195	0xbdd6c510	-0.104868054
196	0x3de8f8d6	0.11375587
197	0xbe6e614c	-0.23279303
198	0x3e08195d	0.13290925
199	0x3e5beaa4	0.21476227
200	0xbe582e91	-0.21111514
201	0xbd9c2eb9	-0.07626099
202	0x3d8273f0	0.063697696
203	0xbe822224	-0.25416672
204	0xbe545971	-0.20737244
205	0x3dc68169	0.09692652
206	0x3e71641d	0.23573346
207	0xbd7c085d	-0.061531413
208	0xbc23acfc	-0.009989973
209	0xbe78d845	-0.2430125
210	0xbe8e3a99	-0.2777908
211	0x3e47473d	0.19460769
212	0x3e41c4a6	0.18922672
213	0xbd6b0fab	-0.05738799
214	0xbdc2ee4a	-0.09518106
215	0xbc6d79ea	-0.014494399
216	0x3dfacced	0.12246118
217	0xbe634618	-0.22194707
218	0xbe17b555	-0.14815266
219	0xbdefdde2	-0.11712243
220	0xbe108b4e	-0.1411564
221	0x3ced0590	0.028933316
222	0x3e12c729	0.14333786
223	0x3ccd7ab0	0.025082916
224	0xbe884d04	-0.26621258
225	0x3e852b51	0.2600961
226	0x3e6a71f7	0.22895037
227	0x3dd0ee60	0.102017164
228	0x3e187844	0.14889628
229	0x3df48a78	0.11940473
230	0x3e505c2b	0.2034766
231	0xbe7336f3	-0.2375143
232	0xbe3751db	-0.17902319
233	0xbceed25b	-0.02915304
234	0xbd3a19b1	-0.045434657
235	0xbe19ca7a	-0.15018645
236	0xbe8555cf	-0.2604203
237	0xbe28587f	-0.16440009
238	0xbdb360ad	-0.08758674
239	0x3e709991	0.23496081
240	0x3e42aef4	0.19012052
241	0x3dbde681	0.09272481
242	0xbe1074c8	-0.14107049
243	0xbda82063	-0.08209302
244	0x3ce4fb36	0.027951818
245	0xbe6edf43	-0.23327355
246	0xbce35466	-0.027750205
247	0x3d6c9bd4	0.057765797
248	0x3e70b231	0.23505475
249	0xbdaeb125	-0.085298814
250	0x3e8b0535	0.2715241
251	0x3c0a966d	0.008458716
252	0xbe04289f	-0.1290612
253	0x3e3f5b1e	0.18687102
254	0x3e73c224	0.23804528
255	0xbe731be9	-0.23741116

model.decoder.input_r.bias f4 [32]
0	0x3d081cbe	0.033230536
1	0x3d8a9fbc	0.06768748
2	0x3de918fb	0.11381718
3	0xbd73b753	-0.059501003
4	0xbdf06b41	-0.11739207
5	0xbe40dfb4	-0.18835336
6	0xbb630d73	-0.0034645468
7	0x3e3349ae	0.17508575
8	0xbcc245da	-0.023714948
9	0x3e80ceab	0.25157675
10	0x3dde10e3	0.10843065
11	0xbe04dedc	-0.12975639
12	0x3da027bc	0.07820079
13	0x3de230e7	0.11044484
14	0xbe141915	-0.14462693
15	0xbccbe2a5	-0.024888346
16	0xbc1e03d4	-0.009644467
17	0x3d6ee7bb	0.058326464
18	0x3e4ae606	0.1981431
19	0xbcf57c94	-0.02996663
20	0x3e0bebad	0.13664122
21	0x3e1aa1d7	0.151008
22	0xbe646f3f	-0.22308062
23	0x3e5f5d3c	0.2181291
24	0xbb149ffc	-0.0022678366
25	0x3e4c5c53	0.19957094
26	0x3e5a3c50	0.2131207
27	0xbe733309	-0.23749937
28	0xbe429db4	-0.19005471
29	0xbc9a190b	-0.01881077
30	0x3de5857e	0.11207102
31	0xbd87bbfb	-0.06627651

model.decoder.input_i.weight f4 [32, 15]
0	0xbe44a572	-0.19203737
1	0x3e49fe0c	0.19725817
2	0xbdba6a8e	-0.09102355
3	0x3e2af5c1	0.1669531
4	0x3e81fc25	0.25387684
5	0xbe28f794	-0.16500694
6	0x3e1a6222	0.15076497
7	0xbd134247	-0.03595188
8	0xbddc38b1	-0.107530005
9	0xbca4ddb5	-0.02012525
10	0x3e176178	0.14783275
11	0x3d85f579	0.06540961
12	0xbdc8578b	-0.097823225
13	0x3e736ed5	0.23772748
14	0xbd8626ec	-0.065503925
15	0xbe1bf6a8	-0.1523081
16	0xbd29db61	-0.04146898
17	0xbe223b02	-0.15842822
18	0x3e113a6c	0.14182442
19	0x3d9da813	0.07698073
20	0x3cdf5175	0.027260521
21	0xbe64fac2	-0.22361282
22	0x3da9bbfe	0.0828781
23	0x3daddfed	0.08489976
24	0xbcd0969a	-0.025462437
25	0x3dec01fb	0.11523815
26	0x3c91383e	0.017727014
27	0xbdcd6d15	-0.10030571
28	0xbda9c949	-0.08290345
29	0xbd434c2e	-0.047680072
30	0x3e296c3e	0.16545197
31	0x3a3be885	0.0007168132
32	0xbe8412ca	-0.25795585
33	0x3e1ac20b	0.15113084
34	0xbdb94970	-0.0904721
35	0xbb889df5	-0.0041692206
36	0xbb9cdc45	-0.0047870004
37	0x3d0c2d0e	0.034222655
38	0x3e8f7669	0.28020027
39	0x3df3b419	0.11899585
40	0xbbf7a33d	-0.0075573013
41	0xbd04adc7	-0.03239229
42	0x3c70b408	0.01469136
43	0xbe0d7f3f	-0.13818072
44	0xbe1b1999	-0.15146483
45	0x3e387acc	0.18015593
46	0xbe51f76e	-0.20504543
47	0x3d2cf5eb	0.042226713
48	0xbde2c5ae	-0.11072861
49	0x3ddc8c84	0.10768989
50	0xbe1630d1	-0.1466706
51	0x3d8f71d9	0.070041366
52	0xbd86c5aa	-0.0658067
53	0x3e518da7	0.20464192
54	0xbd63d9ef	-0.05562776
55	0xbe0f1e57	-0.13976417
56	0xbe05fdd7	-0.13085113
57	0x3e6e9233	0.23297958
58	0x3d99771d	0.07493422
59	0x3dd1fb1e	0.10252975
60	0x3e6c93ef	0.23103307
61	0x3e2dd3de	0.16975352
62	0x3d1720e3	0.036896598
63	0xbd80f19b	-0.062960826
64	0xbe2f8e9f	-0.1714425
65	0x3dbab217	0.09115999
66	0x3e92cd8c	0.28672445
67	0xbe2b236a	-0.16712728
68	0xbe09c9d6	-0.134559
69	0x3d7e7595	0.062123854
70	0x3d3c483a	0.045967318
71	0x3e022078	0.12707698
72	0x3b9a9133	0.004717016
73	0xbc02f9e5	-0.00799415
74	0xbe2e0bd9	-0.16996707
75	0x3d9774f4	0.07395354
76	0xbb884b97	-0.0041594016
77	0x3d6415da	0.0556849
78	0x3db59c67	0.08867722
79	0x3d2b405a	0.041809417
80	0x3dabfe23	0.08398082
81	0xbd3afec1	-0.04565311
82	0xbdaa4b3b	-0.0831513
83	0x3e54e245	0.2078944
84	0x3e443113	0.19159345
85	0xbbe5ea46	-0.007016453
86	0x3e854eca	0.26036674
87	0x3e8c75f6	0.27433747
88	0x3da737d2	0.08164944
89	0x3dff4945	0.12465147
90	0x3e28b4d1	0.16475226
91	0x3c8cff5f	0.017211614
92	0x3db453a1	0.088050134
93	0x3e759f1a	0.23986474
94	0xbc2b98ad	-0.010473412
95	0x3da41f96	0.08013837
96	0xbe1fc835	-0.15603717
97	0xbc6b7ee6	-0.014373517
98	0x3ddf9039	0.1091618
99	0x3e0c8704	0.1372338
100	0x3e413673	0.18868427
101	0x3d756edf	0.059920188
102	0xbb9a5124	-0.0047093797
103	0x3e3aed53	0.18254595
104	0x3e7996b9	0.24373902
105	0x3e377497	0.17915569
106	0xbe8c3173	-0.27381477
107	0xbe3a7e55	-0.18212254
108	0xbe039c8c	-0.12852687
109	0x3dc7fd14	0.09765068
110	0x3e79e807	0.24404918
111	0xbe15802e	-0.14599678
112	0x3d0071d8	0.03135857
113	0xbca679bc	-0.02032172
114	0xbe66a19f	-0.22522591
115	0xbd9dcb97	-0.07704847
116	0x3cda3c90	0.026640207
117	0xbd7a42d4	-0.06109889
118	0xbe343e2e	-0.17601845
119	0x3db0547c	0.08609864
120	0x3cac7eff	0.02105665
121	0xbb65b478	-0.0035050195
122	0xbcc54ebf	-0.0240854
123	0xbc20ee9b	-0.009822513
124	0xbd563e3d	-0.05230545
125	0xbdbb919c	-0.09158632
126	0x3da5d0ff	0.080965035
127	0xbdb8fe8b	-0.09032925
128	0xbe59e632	-0.21279219
129	0xbe14fb66	-0.14549026
130	0xbbaab696	-0.005209754
131	0xbe143ee3	-0.14477114
132	0x3d499e3c	0.04922317
133	0x3e87367b	0.26408753
134	0xbe0d7c19	-0.13816871
135	0x3d69c285	0.057070274
136	0x3e920805	0.28521743
137	0xbdb7a2ce	-0.089665994
138	0xbe16d009	-0.14727797
139	0x3e0f2c1a	0.13981667
140	0xbda6245e	-0.08112405
141	0x3dc6a684	0.09699729
142	0x3dcf5e5c	0.101254195
143	0xbe80fc22	-0.25192362
144	0xbe0a0e52	-0.13482025
145	0x3e75dbae	0.24009582
146	0xbe780726	-0.24221477
147	0xbd59efec	-0.053207323
148	0x3ddf1f7a	0.108946756
149	0xbda36bef	-0.07979571
150	0xbe619055	-0.22027715
151	0xbe31ea9f	-0.17374657
152	0xbe590b87	-0.21195804
153	0xbe3c5c59	-0.18394603
154	0xbc37d37d	-0.011219856
155	0xbe5d45d9	-0.21608676
156	0xbdf2a506	-0.11847882
157	0x3d523cd1	0.05132753
158	0x3e86bf81	0.2631798
159	0x3e6b99bb	0.23007862
160	0x3e4cbbf3	0.19993572
161	0x3d83740f	0.06418621
162	0x3e23213e	0.1593065
163	0xbd6cf308	-0.05784896
164	0xbe41be01	-0.18920137
165	0x3e209bef	0.15684484
166	0x3e0434db	0.12910788
167	0x3df21954	0.11821237
168	0x3e61b553	0.22041826
169	0x3ce0b396	0.027429383
170	0x3e46bcdf	0.19407986
171	0x3e4dcdd6	0.20098051
172	0xbe2ecfc1	-0.1707144
173	0x3e1a8cdc	0.15092796
174	0x3e0383ef	0.12843297
175	0x3d147c04	0.036251083
176	0xbcbce122	-0.02305657
177	0x3e4c3960	0.19943762
178	0x3c538d49	0.012912103
179	0x3df27191	0.11838067
180	0x3e023d96	0.12718806
181	0xbd41c475	-0.047306497
182	0x3e30b501	0.17256548
183	0xbe0c2bd6	-0.13688597
184	0xbc30530c	-0.010761987
185	0xbce274bb	-0.027643552
186	0x3d6d9033	0.057998847
187	0xbe514f3d	-0.20440383
188	0x3e893faf	0.268064
189	0xbe00a82a	-0.1256415
190	0x3e00201f	0.12512253
191	0xbd365e04	-0.044523254
192	0x3e0721cb	0.13196485
193	0xbdefdf5d	-0.11712525
194	0xbe2fe296	-0.1717628
195	0x3d1e6ec0	0.03867984
196	0x3e17c307	0.14820491
197	0xbd4e206a	-0.05032388
198	0x3e16a42f	0.14711069
199	0xbe136d5a	-0.14397183
200	0x3e3c11ef	0.18366216
201	0xbdab230e	-0.083562955
202	0xbbd1d94c	-0.0064040776
203	0x3e18e63b	0.14931576
204	0xbd7d961c	-0.061910734
205	0xbe3f20d6	-0.1866487
206	0xbd2c6d4c	-0.04209642
207	0x3e336ea5	0.17522676
208	0x3e424cde	0.18974635
209	0x3e51063d	0.20412536
210	0x3e789c09	0.24278273
211	0xbdc68c22	-0.09694697
212	0x3e95f91a	0.29291612
213	0x3e47f2a1	0.1952615
214	0x3e094634	0.13405687
215	0xbdbe5217	-0.09293001
216	0xbd488965	-0.048959155
217	0xb9dc50db	-0.00042021912
218	0xbd7faa31	-0.062418167
219	0xbde11720	-0.10990739
220	0xbe09d7af	-0.13461183
221	0x3e2239a6	0.15842304
222	0x3d358191	0.044313017
223	0x3d10ba80	0.03533411
224	0x3db19f19	0.086729236
225	0x3e592ae1	0.21207763
226	0xbda904cf	-0.0825287
227	0x3d80caac	0.062886566
228	0x3ea4b65f	0.32170388
229	0x3d81a13c	0.06329581
230	0xbe2aba29	-0.16672577
231	0xbd7ae9db	-0.06125818
232	0x3e00893b	0.1255235
233	0x3e2524d9	0.16127338
234	0x3e50fbe8	0.20408595
235	0xbc8f7047	-0.017509593
236	0xbe42a675	-0.19008811
237	0xbe50d7c3	-0.20394807
238	0xba603d67	-0.00085540715
239	0x3c9522f5	0.018205145
240	0x3e97c6f6	0.29643983
241	0xbd84a859	-0.06477422
242	0xbde6a759	-0.11262388
243	0x3d4db0f1	0.050217573
244	0xbe094f1d	-0.13409086
245	0xbd70c0b5	-0.05877753
246	0x3e58b074	0.21161062
247	0x3e01f186	0.1268979
248	0xbe8d648d	-0.27615777
249	0x3cc878f9	0.024471747
250	0x3d75f4a8	0.060047776
251	0x3e51e852	0.2049878
252	0xbe443124	-0.1915937
253	0x3e1bd225	0.15216883
254	0xbe501ff9	-0.20324697
255	0xbe475a85	-0.19468124

model.decoder.input_i.bias f4 [32]
0	0x3e842828	0.25811887
1	0xbdd5d0ab	-0.10440191
2	0x3e3d3b42	0.18479636
3	0x3e27abc1	0.16374113
4	0x3e2dca93	0.16971807
5	0xbd19525b	-0.037432056
6	0x3de36910	0.111040235
7	0x3a1b6fcb	0.0005929439
8	0xbd97bae4	-0.074086934
9	0x3e80800b	0.2509769
10	0x3e0d72e9	0.13813366
11	0x3d2e6b7a	0.042582966
12	0x3c53133d	0.012883005
13	0xbd789fc2	-0.060699232
14	0xbcfce47f	-0.030870674
15	0xbe009aeb	-0.12559097
16	0xbd43df5c	-0.047820434
17	0xbe3ff90f	-0.18747352
18	0xbb90fe5a	-0.0044248523
19	0x3e423e06	0.18968973
20	0x3ea4074b	0.32036814
21	0xbe577adb	-0.2104296
22	0xbe294c3f	-0.16532992
23	0x3e492951	0.19644667
24	0xbd8623f6	-0.06549828
25	0xbcaa499b	-0.020787051
26	0x3e5ee3d0	0.21766591
27	0x3e83ee15	0.2576758
28	0x3e1f2ae6	0.15543708
29	0x3d904371	0.070441134
30	0x3d892697	0.066968136
31	0x3d34454e	0.044011407
