pts/model/rgat/dnri-debug/cga7hw3y/checkpoints/epoch=0-step=100.ckpt (torch, 534797 bytes, 155 tensors)

model.encoder.edge2node_mat f4 [8, 56]
000000 00 00 00 00 00 00 00 00 00 00 00 00 00 00 00 00
       0.0 0.0 0.0 0.0
000010 00 00 00 00 00 00 00 00 00 00 00 00 00 00 80 3f
       0.0 0.0 0.0 1.0
000020 00 00 00 00 00 00 00 00 00 00 00 00 00 00 00 00
       0.0 0.0 0.0 0.0
000030 00 00 00 00 00 00 00 00 00 00 80 3f 00 00 00 00
       0.0 0.0 1.0 0.0
000040 00 00 00 00 00 00 00 00 00 00 00 00 00 00 00 00
       0.0 0.0 0.0 0.0
000050 00 00 00 00 00 00 80 3f 00 00 00 00 00 00 00 00
       0.0 1.0 0.0 0.0
000060 00 00 00 00 00 00 00 00 00 00 00 00 00 00 00 00
       0.0 0.0 0.0 0.0
000070 00 00 80 3f 00 00 00 00 00 00 00 00 00 00 00 00
       1.0 0.0 0.0 0.0
000080 00 00 00 00 00 00 00 00 00 00 00 00 00 00 80 3f
       0.0 0.0 0.0 1.0
000090 00 00 00 00 00 00 00 00 00 00 00 00 00 00 00 00
       0.0 0.0 0.0 0.0
0000a0 00 00 00 00 00 00 00 00 00 00 80 3f 00 00 00 00
       0.0 0.0 1.0 0.0
0000b0 00 00 00 00 00 00 00 00 00 00 00 00 00 00 00 00
       0.0 0.0 0.0 0.0
0000c0 00 00 00 00 00 00 80 3f 00 00 00 00 00 00 00 00
       0.0 1.0 0.0 0.0
0000d0 00 00 00 00 00 00 00 00 00 00 00 00 00 00 00 00
       0.0 0.0 0.0 0.0
0000e0 00 00 80 3f 00 00 00 00 00 00 00 00 00 00 00 00
       1.0 0.0 0.0 0.0
0000f0 00 00 00 00 00 00 00 00 00 00 00 00 00 00 00 00
       0.0 0.0 0.0 0.0
000100 00 00 00 00 00 00 00 00 00 00 00 00 00 00 00 00
       0.0 0.0 0.0 0.0
000110 00 00 00 00 00 00 00 00 00 00 00 00 00 00 80 3f
       0.0 0.0 0.0 1.0
000120 00 00 00 00 00 00 00 00 00 00 00 00 00 00 00 00
       0.0 0.0 0.0 0.0
000130 00 00 00 00 00 00 00 00 00 00 80 3f 00 00 00 00
       0.0 0.0 1.0 0.0
000140 00 00 00 00 00 00 00 00 00 00 00 00 00 00 00 00
       0.0 0.0 0.0 0.0
000150 00 00 00 00 00 00 80 3f 00 00 00 00 00 00 00 00
       0.0 1.0 0.0 0.0
000160 00 00 00 00 00 00 00 00 00 00 00 00 00 00 00 00
       0.0 0.0 0.0 0.0
000170 00 00 80 3f 00 00 00 00 00 00 00 00 00 00 00 00
       1.0 0.0 0.0 0.0
000180 00 00 00 00 00 00 00 00 00 00 00 00 00 00 80 3f
       0.0 0.0 0.0 1.0
000190 00 00 00 00 00 00 00 00 00 00 00 00 00 00 00 00
       0.0 0.0 0.0 0.0
0001a0 00 00 00 00 00 00 00 00 00 00 80 3f 00 00 00 00
       0.0 0.0 1.0 0.0
0001b0 00 00 00 00 00 00 00 00 00 00 00 00 00 00 00 00
       0.0 0.0 0.0 0.0
0001c0 00 00 00 00 00 00 80 3f 00 00 00 00 00 00 00 00
       0.0 1.0 0.0 0.0
0001d0 00 00 00 00 00 00 00 00 00 00 00 00 00 00 00 00
       0.0 0.0 0.0 0.0
0001e0 00 00 80 3f 00 00 00 00 00 00 00 00 00 00 00 00
       1.0 0.0 0.0 0.0
0001f0 00 00 00 00 00 00 00 00 00 00 00 00 00 00 00 00
       0.0 0.0 0.0 0.0
000200 00 00 00 00 00 00 00 00 00 00 00 00 00 00 00 00
       0.0 0.0 0.0 0.0
000210 00 00 00 00 00 00 00 00 00 00 00 00 00 00 80 3f
       0.0 0.0 0.0 1.0
000220 00 00 00 00 00 00 00 00 00 00 00 00 00 00 00 00
       0.0 0.0 0.0 0.0
000230 00 00 00 00 00 00 00 00 00 00 80 3f 00 00 00 00
       0.0 0.0 1.0 0.0
000240 00 00 00 00 00 00 00 00 00 00 00 00 00 00 00 00
       0.0 0.0 0.0 0.0
000250 00 00 00 00 00 00 80 3f 00 00 00 00 00 00 00 00
       0.0 1.0 0.0 0.0
000260 00 00 00 00 00 00 00 00 00 00 00 00 00 00 00 00
       0.0 0.0 0.0 0.0
000270 00 00 80 3f 00 00 00 00 00 00 00 00 00 00 00 00
       1.0 0.0 0.0 0.0
000280 00 00 00 00 00 00 00 00 00 00 00 00 00 00 80 3f
       0.0 0.0 0.0 1.0
000290 00 00 00 00 00 00 00 00 00 00 00 00 00 00 00 00
       0.0 0.0 0.0 0.0
0002a0 00 00 00 00 00 00 00 00 00 00 80 3f 00 00 00 00
       0.0 0.0 1.0 0.0
0002b0 00 00 00 00 00 00 00 00 00 00 00 00 00 00 00 00
       0.0 0.0 0.0 0.0
0002c0 00 00 00 00 00 00 80 3f 00 00 00 00 00 00 00 00
       0.0 1.0 0.0 0.0
0002d0 00 00 00 00 00 00 00 00 00 00 00 00 00 00 00 00
       0.0 0.0 0.0 0.0
0002e0 00 00 80 3f 00 00 00 00 00 00 00 00 00 00 00 00
       1.0 0.0 0.0 0.0
0002f0 00 00 00 00 00 00 00 00 00 00 00 00 00 00 00 00
       0.0 0.0 0.0 0.0
000300 00 00 00 00 00 00 00 00 00 00 00 00 00 00 00 00
       0.0 0.0 0.0 0.0
000310 00 00 00 00 00 00 00 00 00 00 00 00 00 00 80 3f
       0.0 0.0 0.0 1.0
000320 00 00 00 00 00 00 00 00 00 00 00 00 00 00 00 00
       0.0 0.0 0.0 0.0
000330 00 00 00 00 00 00 00 00 00 00 80 3f 00 00 00 00
       0.0 0.0 1.0 0.0
000340 00 00 00 00 00 00 00 00 00 00 00 00 00 00 00 00
       0.0 0.0 0.0 0.0
000350 00 00 00 00 00 00 80 3f 00 00 00 00 00 00 00 00
       0.0 1.0 0.0 0.0
000360 00 00 00 00 00 00 00 00 00 00 00 00 00 00 00 00
       0.0 0.0 0.0 0.0
000370 00 00 80 3f 00 00 00 00 00 00 00 00 00 00 00 00
       1.0 0.0 0.0 0.0
000380 00 00 00 00 00 00 00 00 00 00 00 00 00 00 80 3f
       0.0 0.0 0.0 1.0
000390 00 00 00 00 00 00 00 00 00 00 00 00 00 00 00 00
       0.0 0.0 0.0 0.0
0003a0 00 00 00 00 00 00 00 00 00 00 80 3f 00 00 00 00
       0.0 0.0 1.0 0.0
0003b0 00 00 00 00 00 00 00 00 00 00 00 00 00 00 00 00
       0.0 0.0 0.0 0.0
0003c0 00 00 00 00 00 00 80 3f 00 00 00 00 00 00 00 00
       0.0 1.0 0.0 0.0
0003d0 00 00 00 00 00 00 00 00 00 00 00 00 00 00 00 00
       0.0 0.0 0.0 0.0
0003e0 00 00 80 3f 00 00 00 00 00 00 00 00 00 00 00 00
       1.0 0.0 0.0 0.0
0003f0 00 00 00 00 00 00 00 00 00 00 00 00 00 00 00 00
       0.0 0.0 0.0 0.0

model.encoder.mlp_in._model.0.weight f4 [30, 15]
000000 b1 5f fd ba 57 d5 0d 3e 0c 9c 59 be 3f 94 42 be
       -0.0019330886 0.13850914 -0.21250933 -0.19001864
000010 92 aa cb bd 9e cc 8d 3d f2 a1 a7 bb f4 a2 51 3e
       -0.09944643 0.06923793 -0.005115741 0.20472318
000020 55 b5 bb bc c1 ec 8b 3d c2 ce 9f bd 57 e2 4f bd
       -0.022913614 0.068322666 -0.07803108 -0.050752964
000030 0a 97 7c be c2 1a 2f be e1 fa d9 bd e1 b4 1c 3c
       -0.24666992 -0.17100051 -0.106435545 0.009564609
000040 c1 0c d1 3d b7 a4 1e 3e a3 3e 33 be db 44 e6 bd
       0.10207511 0.15492521 -0.17504363 -0.11243602
000050 e9 10 c0 3d 0c 8d 5b 3e 94 a6 59 bd b3 d9 45 3e
       0.09378225 0.21440524 -0.053137377 0.19321327
000060 f8 76 2a bd 77 d0 df 3c 6b 67 6f 3e a3 45 75 be
       -0.041617364 0.027321083 0.23379295 -0.23952346
000070 75 72 26 be 20 df 85 bd 72 1f ce bd 25 70 64 3e
       -0.162546 -0.06536698 -0.100645915 0.22308405
000080 3a 60 2b be 87 6b f3 bd af b7 38 be 67 9f 77 be
       -0.16735926 -0.118857436 -0.1803882 -0.24181901
000090 a5 56 1a be 24 46 63 3e d7 f4 eb 3d 34 25 00 3e
       -0.15072115 0.22194725 0.11521309 0.12514192
0000a0 cd 7a 5e 3c 22 8d 07 be 42 ed 32 3d 66 dd 76 be
       0.013579083 -0.13237432 0.043683298 -0.24107894
0000b0 1b 0b 3f be cc 4d 08 be 37 d1 26 3e 52 05 1b 3e
       -0.1865658 -0.13310927 0.16290747 0.15138748
0000c0 2e 84 ea bd f3 a3 18 bc da 18 29 3e 18 6c 83 3e
       -0.114509925 -0.009316432 0.16513386 0.25668406
0000d0 2b de d1 3d 32 df 0e 3d 10 46 31 3e 42 ad 1b be
       0.10247453 0.034880824 0.17311883 -0.15202811
0000e0 ff 12 45 3d c7 fc 4c be bc 3f 37 be 1c 95 08 be
       0.04811382 -0.20018302 -0.17895406 -0.1333813
0000f0 8a 43 ef 3d b0 a8 d4 3d 8d 9d 1c be 6a c0 9f 3d
       0.11682804 0.10383737 -0.15294476 0.07800372
000100 54 25 11 3e 3c 7c 05 bd 43 85 21 3c 00 0c 75 3d
       0.14174396 -0.032589182 0.009858432 0.059825897
000110 5e 06 24 3e 04 df 7d 3e e1 bf 4b be 38 c9 c1 bd
       0.16018054 0.24792105 -0.19897415 -0.094622076
000120 fa d1 cf 3d 9b 10 5b 3e 3c 14 66 3e 93 4a 69 3e
       0.10147472 0.21393053 0.22468656 0.22782354
000130 6e 79 52 3d f4 e9 65 be 4f 94 c2 3c 47 68 25 be
       0.051385336 -0.22452527 0.02375236 -0.1615306
000140 96 67 76 be df e9 6a 3e 2c 09 49 3e fc de 83 be
       -0.24062952 0.22940777 0.19632405 -0.2575606
000150 2e f3 45 3d 0f 29 32 bd 7a 09 2e bd d0 0e f2 bd
       0.048327617 -0.043496188 -0.042489506 -0.118192315
000160 97 59 cb 3d 3c 9a 1c be ae d9 c1 3d 00 b5 05 3e
       0.09929197 -0.1529321 0.09465347 0.13057327
000170 f9 45 3d 3e 91 b8 c5 3d 42 d7 82 be 3d 83 2b be
       0.18483724 0.09654344 -0.25554854 -0.16749282
000180 48 04 04 3e 7d 5a 5d 3d 36 40 4e be 82 3e 18 be
       0.12892258 0.054041374 -0.20141682 -0.14867595
000190 e3 ba 78 3e 8f 27 32 3e fa 90 e6 bd b7 16 85 bd
       0.24290042 0.17397903 -0.11258121 -0.06498473
0001a0 e1 dc 7b be b6 12 98 bb 03 1b 47 be 80 f1 4b be
       -0.24595977 -0.0046409024 -0.19443898 -0.19916344
0001b0 ed 16 69 bc 72 ca 1e 3d 5a 8e d8 bd ef e2 1c 3e
       -0.014226657 0.038767286 -0.105740264 0.15320943
0001c0 25 e5 20 be 9b e7 6f 3e b8 30 35 3e d9 f5 5e be
       -0.15712412 0.23428194 0.17694366 -0.21773471
0001d0 9d 9b 83 bd 34 e2 3e 3c 6e 4d 1a 3d d6 d4 7a 3d
       -0.06426165 0.011650611 0.0376715 0.061238132
0001e0 3e 83 cf 3d c2 65 7d 3c 99 01 01 be de 37 fa 3d
       0.10132454 0.0154661555 -0.12598266 0.12217687
0001f0 0a 9f 7d be 86 b5 1c be 4c 5f 84 bd 69 ca 00 be
       -0.247677 -0.1530362 -0.06463489 -0.12577213
000200 25 fd b8 bd 55 b4 58 be bf f6 60 bd ab 10 62 3d
       -0.090326585 -0.21162541 -0.054922815 0.055191677
000210 a6 3e 2c be 0d 19 59 bc 92 44 3d 3e 84 70 d9 bc
       -0.16820773 -0.0132506015 0.18483189 -0.02654291
000220 f9 23 eb 3b 16 79 b6 bc f7 08 56 3d fa 1c 28 3e
       0.007175919 -0.022274535 0.052254643 0.16417304
000230 a2 72 7a 3e f1 e7 27 3e 54 05 7b 3e e5 f8 98 bc
       0.24457791 0.16397072 0.24513751 -0.01867337
000240 27 83 6d be 1c b0 fa bd 44 07 34 3e 64 62 db ba
       -0.23194562 -0.122406214 0.17580897 -0.0016737697
000250 ba 6a 03 be 09 9c 4a be 6b 6f 77 be f1 26 5f be
       -0.12833682 -0.19786085 -0.24163596 -0.21792199
000260 42 84 56 bd 05 ff 10 3e 72 f1 0e 3e da fd 7e be
       -0.052372225 0.14159782 0.13959292 -0.24901524
000270 de ec 24 3e 61 e4 4e be 77 95 5f bd 11 69 d6 bd
       0.16105983 -0.20204307 -0.0545859 -0.104692586
000280 e2 b4 4b bd 0d a6 4f bd 64 41 6d be 0b 4a 64 be
       -0.04973305 -0.050695468 -0.23169476 -0.2229387
000290 6f 7d 25 bd 61 d4 5a 3b 74 37 f0 bd fd 31 c7 3d
       -0.040402826 0.0033390748 -0.11729327 0.097263314
0002a0 b6 f8 6d be 26 bf 8e bc c2 83 68 3e 93 b0 d7 bd
       -0.23239407 -0.017425131 0.22706512 -0.10531726
0002b0 07 c0 6e 3e f7 80 bf 3d 54 9b 6e be 4d 48 27 3e
       0.2331544 0.0935077 -0.2330144 0.16336174
0002c0 11 14 f4 bc 5a 0e ec bd c4 6c 53 3e 29 a8 55 be
       -0.029794725 -0.11526175 0.2064696 -0.2086493
0002d0 b9 f7 e2 3c ba 6c 5d bd ec ce 3c 3e f5 9b 93 3d
       0.027706014 -0.054058768 0.1843831 0.07207481
0002e0 49 16 fe 3d 55 bf ba 3d 66 52 7e bd 57 6a 5e bd
       0.12406594 0.09118525 -0.0620903 -0.054300632
0002f0 30 e2 59 be e0 42 0f 3e a3 ec 51 3e f5 e7 34 3e
       -0.2127769 0.13990355 0.20500426 0.1766661
000300 bc 7f 3a be 1b ac 3c 3c ab 61 3a be ae 8b 11 be
       -0.1821279 0.0115156425 -0.1820132 -0.1421344
000310 97 10 1a be 39 b6 b4 3d 8e 8e 1d be 87 96 b8 bb
       -0.15045391 0.08823819 -0.15386412 -0.0056331786
000320 4a f6 31 3c 7f 6f 2a 3e ab dc 47 be c7 82 35 be
       0.010861943 0.16644095 -0.19517772 -0.17725669
000330 3e 86 19 be 32 0f 39 3e fc 14 be bd c7 03 5f 3e
       -0.14992616 0.18072203 -0.09281346 0.21778785
000340 06 37 bf 3d e0 ea 05 3d eb ec fb ba 88 10 51 bd
       0.09336667 0.032694697 -0.0019220387 -0.051041156
000350 e7 b0 04 3d 4d 7e 71 bd 09 cb ed ba b0 f0 06 3d
       0.03239527 -0.05895834 -0.0018142174 0.03294438
000360 c7 cf 4e be fd 93 0a be 61 7f 55 3e c6 91 56 be
       -0.20196448 -0.13533016 0.20849372 -0.20954046
000370 c8 e1 97 bc 74 c6 82 3e de 04 bf 3d 0b 8c ef 3b
       -0.018540278 0.25542033 0.093271 0.0073103956
000380 be 20 65 be cc f9 02 3e ee 52 3c be de 1a 96 bd
       -0.22375771 0.12790602 -0.1839101 -0.07329343
000390 0a 6b b1 bd 59 9d 1c bd 1c 17 39 3b 56 13 5a 3e
       -0.08662994 -0.038235996 0.0028242534 0.21296439
0003a0 02 07 04 3d 3a d1 6c 3e ef bb 21 3e 95 27 27 be
       0.032233246 0.23126689 0.15794347 -0.16323693
0003b0 42 2a ed 3d 77 e6 3a be 74 1d e0 bd 8f 87 9b 3d
       0.11580326 -0.18251978 -0.10943118 0.07594215
0003c0 4b 9a ae 3d 67 5b 46 3e f0 39 aa bd a5 b5 d8 39
       0.08525523 0.19370805 -0.08311832 0.00041334066
0003d0 fb 1d 08 3e ea b1 7f be 27 27 3f 3e 7c a2 5a be
       0.13292687 -0.24970213 0.18667279 -0.21351045
0003e0 d8 37 69 3b 89 ce 33 bd 03 40 0b be 24 c8 0b 3d
       0.0035586264 -0.04389814 -0.13598637 0.034126416
0003f0 3c a2 5a 3e 77 93 9a bd 5b f8 1c be 4c 91 c3 bd
       0.2135095 -0.07547658 -0.15329115 -0.095491976

model.encoder.mlp_in._model.0.bias f4 [30]
000000 60 45 5b 3e b3 5c 0e 3e 71 67 83 3e 6f 93 05 3e
       0.21413183 0.1390255 0.25664857 0.13044523
000010 f6 84 2e be 0b a9 5c 3e 52 5b 63 3c f5 c2 fa 3d
       -0.17042908 0.2154886 0.013876753 0.12244216
000020 09 00 54 be 2b 18 98 bd 55 cd 81 be d4 f5 cd bd
       -0.20703138 -0.07426485 -0.25351968 -0.100566536
000030 4d 27 64 3d e6 97 4f be 4c 8f a8 3d ed ed 0d 3e
       0.055701543 -0.20272788 0.08230457 0.13860293
000040 c2 54 13 3d 1a e7 30 be bd fd 4c be 13 24 a3 bd
       0.035969503 -0.17275658 -0.20018668 -0.07965865
000050 05 1e e8 3d 44 66 82 3e 01 09 18 3e ed 2f ee bc
       0.11333851 0.25468647 0.14847185 -0.029075587
000060 27 67 b9 3d c3 b1 81 be 18 d2 61 be fc bc f6 3d
       0.09052878 -0.25330934 -0.220528 0.12047765
000070 fa c1 15 be 33 66 fe 3d
       -0.14624777 0.12421837

model.encoder.mlp_in._model.2.weight f4 [30, 30]
000000 6d fa 03 be e1 33 b9 bd 5a fe 19 be 59 1f c3 3d
       -0.12888499 -0.09043098 -0.15038434 0.095274635
000010 30 66 98 bc ab e1 0f 3e 58 67 e7 3d c2 e6 ce 3d
       -0.018603414 0.14050929 0.11299008 0.10102607
000020 79 60 c0 3b ef 35 67 bd c0 99 22 bd c1 c5 c6 3c
       0.0058708754 -0.05644792 -0.03969741 0.024264218
000030 0a 5a b9 3d be fa 02 be 73 e8 1c 3e 34 9f a2 bc
       0.09050377 -0.12790963 0.15323047 -0.019851305
000040 af a8 1c be d7 4e ca bd 05 6c 25 3e ef f9 2a 3e
       -0.15298723 -0.09878319 0.16154487 0.16696905
000050 6b 2c 2d be 17 dc 03 3e b0 63 bb 3d 4c 53 dd 3d
       -0.16911475 0.12876926 0.09149873 0.10806903
000060 81 43 1e 3e 1c 85 c9 bd 07 25 6c 3d 66 04 99 3d
       0.15455438 -0.09839842 0.0576525 0.07471542
000070 1c fa 5c bd f8 42 7a 3d b1 28 57 bd e0 2c e7 3d
       -0.05394946 0.061099023 -0.05252904 0.11287856
000080 b8 7c 4f bd 8c 64 8b bd 91 43 3c 3d cb 9f 84 3d
       -0.05065605 -0.06806287 0.045962874 0.064757906
000090 ca ae b6 bd 78 36 84 3c 00 b2 d8 3d e2 cf 94 bc
       -0.08920057 0.016139254 0.10580826 -0.018165532
0000a0 92 96 63 3d 89 5d 34 bd 55 0e 83 3d 08 6e 07 be
       0.055563517 -0.044034515 0.06399218 -0.13225567
0000b0 f8 de db bd 4e cb bd bd 87 d0 2b 3e 3e 3a 49 bd
       -0.10735887 -0.09267293 0.16778766 -0.04912781
0000c0 6f ad 02 ba 9e 28 b5 bd e3 a2 3a 3e 25 98 36 3e
       -0.000498495 -0.08845638 0.18226199 0.17831476
0000d0 ec ff 0c be 40 8f 17 be 18 b6 0d be c5 d1 66 ba
       -0.13769501 -0.1480074 -0.13838995 -0.0008805062
0000e0 8c 9f 3e bd 10 be f4 bd 9e 1c 86 bd 7a 49 0d 3d
       -0.046538875 -0.11950314 -0.06548427 0.0344939
0000f0 93 5d c3 bd 67 b4 25 3d e6 7c 2b bd 1c 2f b5 bd
       -0.09539332 0.04045525 -0.04186716 -0.08846876
000100 f4 7a cd 3c e0 b9 19 3e 4a cb fc bd 26 e6 0a 3c
       0.025083043 0.15012312 -0.12343462 0.008477723
000110 fc e2 89 bd 08 76 37 3e 80 60 31 be 39 3a 33 be
       -0.06732747 0.17916119 -0.17321968 -0.17502679
000120 3d 39 38 3e 00 92 ec bd 13 60 0f 3d 61 15 81 bc
       0.17990585 -0.11551285 0.035003733 -0.015757265
000130 ca 88 1d bd 59 06 27 bd 4c 99 ed 3d 8f f9 0e 3c
       -0.03846053 -0.040777538 0.11601505 0.008726492
000140 e7 05 36 be 22 be dc bd f2 ee 7e bd 9b 28 bc 3d
       -0.17775689 -0.107784525 -0.062239595 0.091874324
000150 94 f8 f1 bd d1 48 30 3e f3 8f 26 bd de 47 06 bd
       -0.11814991 0.17215277 -0.040664624 -0.03278338
000160 a8 7d 12 3e 57 ee bb 3d a8 8f 1e 3e 89 49 d8 3d
       0.14305747 0.09176319 0.15484488 0.10560901
000170 f4 da 62 bd 8b 14 f8 bd be 8f 5e bc 56 bb 1a 3e
       -0.05538459 -0.12113293 -0.0135840755 0.15110525
000180 08 fc 7a bd 9a 60 2d be f2 46 99 3d 0c ff 35 3e
       -0.061275512 -0.16931382 0.07484235 0.17773074
000190 96 e4 54 bd cf cd 1a be 89 94 29 be 79 67 3b 3d
       -0.05197581 -0.15117572 -0.16560568 0.045752976
0001a0 02 80 62 bc 1d d2 bc bd b6 28 17 3d 11 ff 8d 3d
       -0.013824465 -0.092197634 0.03690406 0.06933416
0001b0 8b b0 14 3e 37 26 11 3e c5 df df bc 04 da 24 be
       0.14520471 0.14174734 -0.027328381 -0.16098791
0001c0 0f f0 28 be 10 8f 2e 3e 2b 4a a5 3d b0 fd a2 3d
       -0.16497825 0.17046762 0.08070787 0.07958543
0001d0 1b c2 21 be c9 1f 2d 3e 88 1c 31 3e 8d cb 28 3e
       -0.15796702 0.16906656 0.1729604 0.16483898
0001e0 97 b6 1d be f1 15 8d bd e0 94 00 be 76 0a 31 3e
       -0.15401684 -0.068889506 -0.12556791 0.17289147
0001f0 98 a9 a0 bd 10 b6 aa bd b4 e5 c3 3d 03 f8 ac bd
       -0.078448474 -0.08335507 0.09565297 -0.08445742
000200 ef 28 b8 bd 97 d3 82 bc cd c2 8f bc 7a a2 11 be
       -0.089921825 -0.015970035 -0.017548943 -0.14222136
000210 f6 db 1b 3e cf f0 a4 bd d3 a1 84 3d 7a 9c 22 3e
       0.15220627 -0.08053743 0.06476178 0.15880004
000220 e7 91 bc 3d ec c0 d3 3c a3 12 1f 3e e6 0d c9 3c
       0.09207516 0.025848828 0.15534453 0.02454276
000230 2a fe ac bd 39 dc 30 3e ce fe 30 3d cb 68 36 be
       -0.084469154 0.17271508 0.04321175 -0.17813413
000240 2f e6 54 bd 57 b2 fe bd 09 ea 23 3e 03 00 f7 bc
       -0.051977333 -0.124363594 0.16007246 -0.030151373
000250 3e 6a 2a be f8 0a 3c bc 4f d2 ea 3d f3 48 42 3d
       -0.1664209 -0.0114772245 0.114658944 0.04743285
000260 18 77 6c 3d d6 e7 8a 3c c0 66 8b 3d 72 35 36 bd
       0.057730764 0.016956251 0.068067074 -0.044484563
000270 04 be 94 bd d4 bf 2e be 40 d7 0c be ec 0d a2 3d
       -0.07262805 -0.17065364 -0.13753986 0.07912812
000280 f4 65 dd bd 47 93 d6 3c f1 b2 6e 3d 9a cb 53 3c
       -0.10810462 0.026193274 0.05827612 0.01292696
000290 fb 6c f2 bd 92 ca 32 3e f9 6d d9 bd 7a c5 19 3e
       -0.118371926 0.17460087 -0.10616679 0.15016738
0002a0 9b b9 14 be 4d e3 33 bd 7c 65 cb 3d ef c5 98 bd
       -0.14523928 -0.043917943 0.09931466 -0.07459628
0002b0 11 0d 1d 3e ab a7 00 be 13 00 1d be a3 9a a8 bd
       0.15337016 -0.1256396 -0.1533206 -0.082326196
0002c0 a7 c5 f1 3c 0b 24 2c 3e 82 81 b2 bd b2 b8 85 3d
       0.029513193 0.16810624 -0.08716108 0.065293685
0002d0 15 7c 3b bd c1 2c 22 bd 28 78 09 3e 64 e3 10 be
       -0.04577263 -0.039593462 0.13424742 -0.14149243
0002e0 94 db 9e 3c ab d0 2f 3e 2e 85 cd bc e4 28 11 3e
       0.019391812 0.17169444 -0.02508792 0.14175755
0002f0 26 4c 66 bd 13 7e 16 3e 22 d9 34 be e9 8e d7 bc
       -0.056224965 0.14696531 -0.17660955 -0.026313262
000300 43 5a 03 bd c6 5b 72 3d 27 b2 92 3d 46 8c 0f 3e
       -0.032068502 0.059169553 0.07162886 0.14018354
000310 9e d4 de bc 7c 3d ed bb 90 07 00 3e 4f 57 4a bd
       -0.027200993 -0.0072399955 0.12502885 -0.04939967
000320 53 e4 23 3e 81 f4 f8 bd 04 d8 a1 bc 50 aa 20 bc
       0.16005068 -0.121560104 -0.019756325 -0.009806231
000330 dc d7 a6 3d 79 a2 ff 3d d8 10 ed bc af e3 1a be
       0.08146641 0.12482161 -0.028938696 -0.15125917
000340 3c 45 b9 3d a7 b2 5f 3d 3e 33 96 3d 78 a7 e6 bd
       0.090464085 0.054613736 0.073339924 -0.11262411
000350 e7 a5 f0 3d 87 13 31 3e 87 c7 81 3c 3c a0 2e be
       0.11750393 0.17292605 0.015842212 -0.17053312
000360 bf 3d 03 3e 65 9e 0a be 62 e7 2b 3d 1f 58 d9 3c
       0.12816523 -0.13536985 0.04196871 0.026531277
000370 23 01 af bd c9 31 82 3d 32 38 27 be f0 52 2a 3d
       -0.08545139 0.06357152 -0.1633003 0.041583
000380 b5 0a ed bd d9 ba a1 bc 29 62 c0 3c ae 46 1f 3e
       -0.11574308 -0.019742416 0.023484306 0.15554306
000390 a6 66 b2 bd 9e 8a ef 3d 73 ff bd bc c7 94 b1 bd
       -0.08710985 0.11696361 -0.023193097 -0.08670955
0003a0 1b cd 22 be 19 89 2b be 4c 95 36 3e c6 81 3a bd
       -0.15898554 -0.16751517 0.1783039 -0.045533918
0003b0 62 69 15 3c 88 be 4a 3d f4 28 fe 3d e4 8f 1f 3e
       0.0091193635 0.04949811 0.12410155 0.15582234
0003c0 df 9f 17 3e 34 83 0a be be a0 ef bc fc 41 dd bd
       0.1480708 -0.13526613 -0.029251453 -0.10803601
0003d0 9f a2 d5 bd 9c 63 31 3d 60 7c 2f 3e 6b c5 15 be
       -0.10431408 0.043307886 0.17137289 -0.1462609
0003e0 0d 4b e2 3d 63 dc c1 bd 27 a8 11 bd 74 66 14 3e
       0.11049471 -0.094658636 -0.035560753 0.14492208
0003f0 b3 22 29 bd f5 2f 88 3c 35 b0 02 be 02 25 1f 3e
       -0.041292857 0.01662443 -0.1276253 0.15541461

model.encoder.mlp_in._model.2.bias f4 [30]
000000 3a 02 39 3e c3 f0 f1 bd ab 50 23 bc 16 bb 8e bd
       0.18067256 -0.118135 -0.009967963 -0.069692776
000010 6b 0a 24 3e b1 0a 20 3e 07 24 a3 bb 2d 9c 81 bd
       0.16019599 0.15629078 -0.00497866 -0.06328616
000020 0c 07 e7 bd 3e c6 05 3e d0 fd 4d bc b0 13 30 3e
       -0.11280641 0.13063905 -0.012572721 0.1719501
000030 4e 3a d5 3d b7 a4 23 3e 2e de 13 3e d8 fb f2 bd
       0.10411511 0.15980802 0.14440224 -0.11864442
000040 c2 e3 5a 3d c1 0b 9b bd 8c 9c bb 3d 2f 79 86 bc
       0.053439863 -0.07570601 0.09160718 -0.016415207
000050 63 7a 81 3c e6 4c 01 be 5c 16 27 be 1d ce 8c 3d
       0.015805429 -0.1262699 -0.16317123 0.068752505
000060 89 c8 2d 3d 89 ea 81 3c 7e f5 fd 3d d4 22 9c bd
       0.042427573 0.015858905 0.124003395 -0.076238304
000070 48 bb 84 3d b3 ef cd bd
       0.064810336 -0.100554846

model.encoder.mlp_edge_list.0._model.0.weight f4 [30, 60]
000000 8d 21 db 3c d0 71 f1 bc d0 29 b9 3d 9a 35 e7 3d
       0.026749397 -0.029473215 0.09041178 0.112895206
000010 47 a2 e5 3d 52 4c be 3b 8c e9 9b 3d 7c 15 04 be
       0.112125926 0.005807438 0.07612905 -0.1289882
000020 cd 17 9b bd bb 03 bd 3c 46 bd 3c 3a e3 91 cf bd
       -0.07572899 0.023073068 0.0007199835 -0.101352476
000030 96 0c 6a bd 63 f9 76 bd 03 fa 02 be 96 b9 49 3c
       -0.05714091 -0.060296427 -0.12790684 0.012312314
000040 a8 3c b4 3d f7 9d 56 3d 05 3f 7b bd 0c c9 f2 bd
       0.08800632 0.05239674 -0.061339397 -0.11854753
000050 ef 4e d5 bd 43 f0 1c 3b 9c e1 b5 3d 5e 25 56 bd
       -0.10415446 0.0023946918 0.08880922 -0.05228173
000060 9c de 8f bd 27 0b 8d bd 6d 1b 37 bc a7 15 fb bd
       -0.07024881 -0.06886893 -0.011175972 -0.12259989
000070 83 50 e9 bd 62 22 02 3e 68 30 7c bd dd bf be bc
       -0.113923095 0.12708429 -0.0615696 -0.023284847
000080 c5 7a 0d bd f2 45 e8 bd cf 71 ba bc 32 df 21 3d
       -0.03454091 -0.11341466 -0.022759346 0.039519496
000090 40 b8 56 bd c3 4b b4 bb fd e2 21 ba 84 9a 03 be
       -0.05242181 -0.0055021956 -0.00061754865 -0.12851912
0000a0 02 24 c0 3d 55 92 d5 3d 34 44 b4 3d 79 a7 2d bd
       0.09381868 0.10428301 0.08802071 -0.042396042
0000b0 d8 29 8a 3d de b7 f7 bd e1 d0 02 bd 7f 18 d7 bc
       0.06746262 -0.12095617 -0.031937484 -0.026256798
0000c0 13 be 3a bd a7 17 5e 3d aa f2 70 bd e3 27 75 bc
       -0.045591425 0.054221775 -0.058825172 -0.014963123
0000d0 b7 b0 18 bd 1a 4a f8 bd 5d a6 ae bc ad 11 e0 bd
       -0.037277903 -0.12123509 -0.021319563 -0.109408714
0000e0 92 2b 9a 3d 47 4f 8d 3d 0a af f7 3d d1 91 31 bd
       0.07527842 0.068998866 0.12093933 -0.043351952
0000f0 1d 1f d7 3b aa 2b cf 3c 5b f6 03 3e 3f 59 f2 3d
       0.0065649883 0.025289375 0.12886946 0.118334286
000100 d0 d5 88 bd 98 f9 e0 bd f5 4b ee bd 06 a5 7e bd
       -0.066814065 -0.10985106 -0.116355814 -0.062169097
000110 e2 4c de 3d 29 98 31 3d 5e 1a ff 3d bf f9 c3 3d
       0.10854508 0.043358 0.12456201 0.0956912
000120 b7 51 f5 3a ae dd a3 bd 5d 17 01 3e 31 17 d4 3d
       0.001871637 -0.080012664 0.12606569 0.10355986
000130 be ef 64 3d 00 6e 90 bd 12 49 d0 3d 85 83 40 3c
       0.0558927 -0.07052231 0.10170187 0.011750107
000140 cf d3 ae 3d 2d b3 5c 3d 74 65 8c 3d 37 00 e8 bd
       0.08536493 0.053881813 0.06855288 -0.11328166
000150 38 9a 92 bd b5 93 9e 3d 19 55 dc bc d5 04 e6 bd
       -0.07158321 0.07743017 -0.026896046 -0.112313904
000160 f4 70 f0 3d 58 f7 36 bb a2 48 d5 3d f6 a7 ce bd
       0.11740294 -0.0027918424 0.10414244 -0.1009063
000170 41 0f 36 3d dc 2d 47 bd 04 86 5e bd 6b 94 dc bc
       0.04444814 -0.04862772 -0.054327026 -0.02692624
000180 de ba 43 bd d8 e0 90 3d 94 f0 c8 bc 2f 78 c8 3d
       -0.047785632 0.070741355 -0.02452878 0.09788548
000190 92 52 f1 3c a4 69 a3 bc fc b6 98 bd 98 19 f2 bd
       0.029458318 -0.019947834 -0.074567765 -0.11821288
0001a0 9e 42 1a bd b7 d6 f4 bd 65 f0 c3 bc 9e 48 0a 3b
       -0.037661187 -0.11955016 -0.02391834 0.0021100412
0001b0 31 4f 08 bc 28 e0 81 bd e6 81 b7 3d fe e6 94 3d
       -0.008319662 -0.063415825 0.08960323 0.07270621
0001c0 36 48 02 bd b5 ed 50 bd 13 39 a6 3d d9 07 e6 3d
       -0.031807147 -0.051007945 0.08116355 0.112319656
0001d0 43 17 f2 bd 1f 80 e4 bc bb 4a 44 bc 65 74 3f bd
       -0.11820843 -0.027893124 -0.011980708 -0.04674186
0001e0 8c b7 e1 3d 8e 37 9c bc e0 2a e0 3d 08 4e 27 3a
       0.11021337 -0.01906946 0.10945678 0.0006382172
0001f0 47 6f 65 bc f1 38 9a bd 96 d3 2f bd 69 64 2a 3d
       -0.014003581 -0.07530392 -0.042926393 0.041599665
000200 7c e7 69 3d 0d 84 96 bb 71 ed fb 3d 36 ff b6 bd
       0.057105526 -0.0045933784 0.12301148 -0.089353964
000210 e6 be 4a 3d 7e 22 ee 3d 1d e5 b7 bc f7 e7 d1 3d
       0.04949846 0.116276726 -0.022448117 0.10249322
000220 00 78 0b 3b c8 fd c5 bd 43 0d 91 bd 07 d3 44 3d
       0.0021281242 -0.096675456 -0.070826076 0.048052814
000230 78 d5 64 bd 3e 5c fe 3c cd 1d 02 3e bd 9e 33 3d
       -0.055867642 0.031049844 0.1270668 0.043852556
000240 36 f5 45 bc 8b 2c 04 3d 75 54 98 bd c6 28 de bd
       -0.012082389 0.032269042 -0.07437984 -0.10847621
000250 01 bf c6 bd e5 da dd bd 5e 09 d9 3c d5 ff cd 3c
       -0.097044 -0.108327664 0.026493724 0.025146404
000260 2a b8 60 bd 34 4f 01 be 72 39 8f 3d 43 05 96 bd
       -0.054863133 -0.1262787 0.06993379 -0.07325222
000270 9f 8f b0 bc e4 b0 dd bd 36 29 95 bd 2e 97 5c 3d
       -0.021552859 -0.10824755 -0.07283251 0.053855114
000280 35 58 f6 bd d6 c4 96 bd b5 39 c6 3d 51 98 87 bd
       -0.12028543 -0.07361762 0.096789755 -0.06620849
000290 45 0f 5c bd 82 78 14 bd 63 09 62 3d 7e 6f ad bd
       -0.0537255 -0.036247738 0.055184733 -0.08468531
0002a0 ef 13 54 3c b5 f5 57 3d f1 8b 19 bc 0f 3b bf 3c
       0.012944206 0.05272456 -0.009371744 0.023343591
0002b0 8e b1 c9 bd f7 10 6f 3d f9 9f 45 3d a4 a7 84 bc
       -0.09848319 0.05836579 0.048248265 -0.016193219
0002c0 f5 9e da bd eb 80 53 3d 76 87 ac 3d c6 fa b8 bc
       -0.1067485 0.051636618 0.084242746 -0.022580516
0002d0 41 3d 79 3d 57 00 44 3d d7 7f 53 bd e3 d5 12 bc
       0.060849432 0.047851887 -0.05163559 -0.008962127
0002e0 45 98 03 3e cd c5 1f 3a 2c 7d d2 bd 64 41 1a bc
       0.12851055 0.0006094843 -0.10277781 -0.009415004
0002f0 ef 88 83 3d 28 9c 2c bd ac 75 8a bd ac cd d9 3d
       0.064226024 -0.04214111 -0.067607254 0.10634932
000300 50 de 8b 3d 01 ad b3 bc 81 1f d8 3b a4 b4 5f bc
       0.06829512 -0.02193308 0.0065955524 -0.013653908
000310 c7 88 f5 3c 08 58 96 3b bc fe 9f bd 5d f1 c3 3c
       0.029972447 0.004588131 -0.078122586 0.023918802
000320 5a 49 5d 3b bc c0 08 3c 17 84 49 bd 01 7d 07 3d
       0.0033765645 0.008346733 -0.049198236 0.033078197
000330 72 cd d5 bd 66 11 1e 3d 35 46 8f 3d da c7 68 bc
       -0.10439576 0.03859081 0.06995813 -0.014207805
000340 f1 61 cd bd 23 0c f6 b9 1e 2a 40 39 f3 7d e4 bd
       -0.100284465 -0.0004692982 0.00018326237 -0.111568354
000350 7b 01 bb bd be 8c f4 3d 53 b8 c5 3d 64 87 92 3d
       -0.09131142 0.11940907 0.09654298 0.0715473
000360 92 29 b7 3d a7 90 4b 3d 84 cc 94 3d 6f 1d af 3d
       0.08943476 0.049698498 0.07265571 0.08550536
000370 35 0f f7 bc 2b 71 86 bc c1 86 bc 3d 35 01 43 b8
       -0.030158618 -0.016411385 0.0920539 -4.6492747e-05
000380 e7 09 ac bd 18 03 cd bd b7 de 93 3d 0a 01 db 3d
       -0.08400326 -0.10010356 0.07220214 0.106935576
000390 3a 55 cd 3d 7b 00 b0 3c d7 81 b6 3d 1d c0 f2 bd
       0.10026021 0.021484604 0.08911484 -0.11853049
0003a0 be 7c be bd d9 68 fe bd 1b 05 d5 3d 2c 1d 99 ba
       -0.093011364 -0.12422342 0.104013644 -0.0011681668
0003b0 60 7d 73 bd ca ed 32 3d a9 f1 45 bd 91 91 a9 bd
       -0.05944574 0.043683805 -0.04832617 -0.08279718
0003c0 34 f4 4b 3d 61 a4 c1 3c af 56 bd bd ba 25 ae bd
       0.049793437 0.023637952 -0.09245049 -0.085032895
0003d0 29 ef 77 3d 53 0a c9 3d 7d 30 2c 3c 4e cd 84 bd
       0.060530815 0.09816422 0.010509607 -0.06484471
0003e0 fc 56 7f 3d bc 72 b8 3c 12 79 e7 bd 1c 57 ab bd
       0.062338814 0.022515647 -0.11302389 -0.08366224
0003f0 f8 7a e7 3c ed 99 a3 3d aa e1 29 bd 36 b0 7f 3d
       0.028256878 0.079883434 -0.041474976 0.062423907

model.encoder.mlp_edge_list.0._model.0.bias f4 [30]
000000 3d 31 dc 3d 32 84 de 3d 30 c0 b8 bd da 77 29 bd
       0.10751579 0.10865058 -0.09021032 -0.041374065
000010 63 db 7a bd c7 f8 c1 3c 02 b3 0d 3d 38 4c eb 3c
       -0.06124438 0.023678197 0.034594543 0.028722867
000020 47 81 9a 3d 3f 7d 8b 3d de e9 8d bd bb 80 b5 3d
       0.07544189 0.06810998 -0.06929372 0.08862444
000030 60 5a b2 3d 8d f4 8b 3c d5 07 e6 bd 1d 29 a2 bd
       0.08708644 0.017084384 -0.112319626 -0.07917998
000040 8d 5c 13 3d 53 d3 36 3d 27 89 f6 3d 9f 90 86 3d
       0.035976935 0.04463513 0.120378785 0.06570553
000050 2e a8 3f 3d a4 48 90 bb 8f 48 b4 3d ff 78 40 bd
       0.046791248 -0.0044031907 0.08802902 -0.04699039
000060 7e 4e 57 3d 48 db 7b bd e1 ef 9d ba a6 41 9c 3d
       0.05256509 -0.06148842 -0.0012049639 0.07629709
000070 dc a2 72 3d 96 53 ed bc
       0.059237346 -0.028970521

model.encoder.mlp_edge_list.0._model.2.weight f4 [30, 30]
000000 54 81 17 bb 29 92 cf bd 0a 32 ad 3d 32 99 fb 3d
       -0.0023117857 -0.101353 0.0845681 0.12285079
000010 76 b5 80 3d 06 e9 34 be 43 d5 05 be 4a 51 fa 3d
       0.06284611 -0.17667016 -0.13069634 0.12222536
000020 49 27 d6 bc 4e a1 e5 3d 7a ce 09 3e f0 0e 5b bd
       -0.02614178 0.11212407 0.13457671 -0.053481042
000030 df 61 db bd 14 e3 2f be 3e 07 8f 3d 04 c6 bf 3d
       -0.10712027 -0.17176467 0.06983803 0.0936394
000040 ae a5 01 bd 66 80 35 be 30 d7 f0 bd 37 2c 21 bc
       -0.031652145 -0.17724761 -0.11759794 -0.009837202
000050 95 a7 aa 3d 2c 95 7a bd b4 61 f1 bd 72 27 02 be
       0.08332745 -0.061177418 -0.117862135 -0.1271036
000060 67 46 27 3e eb 66 87 3d ec ca 17 be f4 ea e6 bd
       0.1633545 0.06611427 -0.14823502 -0.112752825
000070 bb b4 1e be a9 64 d8 3c 2a d5 97 bd 79 04 22 ba
       -0.1549863 0.026415186 -0.07413705 -0.0006180476
000080 dc 9b ec bc 80 a6 23 be 94 11 27 be 27 02 11 be
       -0.028882913 -0.15981483 -0.163153 -0.14160977
000090 26 99 9c bd 0c a0 e8 3c 95 d7 af bd 82 3f d5 bb
       -0.07646398 0.028396629 -0.08586041 -0.006507815
0000a0 46 27 b3 bc 8c fa 2a 3e 88 74 aa bd c4 a6 2f 3e
       -0.021869313 0.16697139 -0.08323008 0.1715346
0000b0 0a 86 0f be df fb 1b be 04 30 73 3d 6b 9d d9 bd
       -0.14015976 -0.152328 0.059371963 -0.10625728
0000c0 d9 c9 bf 3d a3 dd ce bd a2 38 13 3e 29 07 35 3e
       0.09364671 -0.101008676 0.14377072 0.17678513
0000d0 5d 80 3f 3c 26 d3 1f 3d 86 4d 2e 3e 3e a9 dd 3d
       0.011688319 0.039019726 0.1702176 0.10823296
0000e0 d7 35 23 be 48 82 bf bb cd c2 28 be 2c d0 0e 3e
       -0.15938507 -0.005844388 -0.1648056 0.13946599
0000f0 d0 f9 08 bd a4 ce a6 ba 42 ba e5 bd f2 50 cb bd
       -0.033441365 -0.0012726379 -0.112171665 -0.099275485
000100 20 1b c2 3c 83 40 1a 3e aa f2 bb bd 45 54 8d 3c
       0.023694575 0.15063672 -0.09177144 0.017252097
000110 d9 3b 29 3e 6d 8d 27 3e 36 34 12 bd 04 3a 2f 3e
       0.16526736 0.16362543 -0.035694323 0.17111975
000120 c3 2a 88 3d c6 45 2a 3e 57 80 b1 3b b8 71 1e be
       0.06648781 0.16628179 0.0054169106 -0.15473068
000130 83 8f 4b bd 8f 4b 60 3d c4 65 c7 3d 3d 3f 3a be
       -0.04969741 0.05475956 0.09736207 -0.18188186
000140 72 6c 11 3e b3 b6 27 be 2b 15 db 3d 8e 76 38 3e
       0.14201525 -0.16378288 0.10697397 0.18013975
000150 0f 4a 38 3d 45 23 0d bd c0 e0 cd 3d b7 f4 5d bd
       0.044992503 -0.034457464 0.10052633 -0.054188456
000160 01 7c 0a be 2b ae 04 be 80 ce af 3d 64 c8 0e 3e
       -0.13523866 -0.12957065 0.085843086 0.1394363
000170 6f 40 f2 3b 48 45 35 be 55 b4 37 be 3b dd 28 bd
       0.007392935 -0.1770221 -0.17939885 -0.041226607
000180 48 d8 c9 3d 51 2c f9 bd ac 91 49 3d 7b 5e cc bd
       0.098557055 -0.12166656 0.04921119 -0.09978958
000190 30 1c 18 3e fe f3 43 bd 8b d8 1b bd b5 f9 23 be
       0.14854503 -0.04784011 -0.03804831 -0.16013224
0001a0 74 74 27 be 7c 2a 4a 3c 43 d5 f1 3c 2d 03 ca 3d
       -0.16353017 0.012339231 0.029520636 0.09863887
0001b0 d0 7a 23 be be 08 03 3d 7d 0f d8 bc cd 55 db 3d
       -0.15964818 0.03199076 -0.026374573 0.107097246
0001c0 28 04 aa bd fe cb 5e 3d d6 ac 96 3d 7e d4 bb 3d
       -0.08301574 0.05439376 0.073571846 0.09171389
0001d0 6d 3f 80 bd 67 a8 70 3d 6e 8f 12 bd a0 5f 49 3d
       -0.062620975 0.05875435 -0.035781316 0.04916346
0001e0 6b eb e5 bd 94 8e 14 be 6c ed 18 be 1b 0d eb bd
       -0.11226543 -0.14507514 -0.1493432 -0.11477109
0001f0 f8 3f 9e bd 51 a1 de 3c b2 93 23 bd ea db d4 bd
       -0.07727045 0.027176531 -0.039935775 -0.10393508
000200 48 07 c9 3a 0b 29 6c bd 9d 7d e6 3d 5b fa 19 be
       0.0015337253 -0.05765633 0.112544276 -0.1503691
000210 9e 03 8a bd c3 49 f0 bd a1 8c b8 3c 43 31 23 3c
       -0.06738971 -0.11732819 0.022527995 0.009960475
000220 c6 13 2c bc 3b 7f 39 3e 2f a4 8e bd e0 f7 d6 bc
       -0.010502761 0.18114941 -0.06964909 -0.026241243
000230 ab 34 41 3d 22 09 1c 3e 4d b5 0d 3e 4d dc aa 3c
       0.04716937 0.15237859 0.13838692 0.020857
000240 fa 75 8d bd 8a ac 75 3d 8b 42 eb 3d 52 5a 7f bb
       -0.06907268 0.059979 0.114873014 -0.0038963747
000250 4c 4a cd 3d 3b 02 19 3e 8a 54 c8 bd 7b 53 25 bd
       0.10023937 0.14942257 -0.097817495 -0.040362816
000260 c0 51 28 be 5c aa 2b 3d df 3d 05 3e 82 38 11 bd
       -0.16437435 0.041910514 0.13011883 -0.03545428
000270 ac a8 ee 3c 82 f4 6e 3d 71 35 7f bb e2 58 11 3e
       0.029133163 0.05833865 -0.0038941766 0.14194062
000280 ac f2 d9 3c 7f c4 37 be b9 62 1a be c0 3a 39 be
       0.026604973 -0.17946051 -0.15076722 -0.18088818
000290 a9 94 f6 3b f1 1f ca 3d 4e 52 c5 bc 33 18 28 3e
       0.007525046 0.098693736 -0.024087097 0.16415481
0002a0 23 89 06 bd 93 e4 18 3d f7 95 28 3e d8 3b bd 3d
       -0.032845628 0.03732736 0.16463457 0.0923993
0002b0 af dc be bb 8d 14 34 3e 2a 66 df bd e8 45 8b 3d
       -0.0058246474 0.17585965 -0.10908158 0.06800443
0002c0 a3 23 ec 3d ed 85 e7 bd aa 9d 2f be 56 33 6f 3d
       0.11530235 -0.11304841 -0.17149988 0.058398567
0002d0 a6 db 8d bd 08 b1 bc bd 05 bf 14 3d 86 9f 07 be
       -0.0692666 -0.092134535 0.036314983 -0.13244447
0002e0 1f 26 28 3e 18 42 86 bc 0e 7e 6f bd ac 4a 1c 3e
       0.16420792 -0.016388938 -0.058469824 0.1526286
0002f0 a9 39 50 3d 25 7a 0e 3d 63 c7 b2 bd d9 2e 32 3e
       0.05083624 0.034784455 -0.08729436 0.17400683
000300 82 c3 63 bd 35 7f 1b 3e b9 e2 5b bc 7a 91 bb 3d
       -0.055606373 0.15185244 -0.013420754 0.09158607
000310 f7 73 03 3e 6d 30 0b be a7 36 f9 bd 47 df 38 be
       0.12837206 -0.13592692 -0.12168627 -0.18053924
000320 27 d8 06 3e 8a c7 20 3e 47 a7 88 bd 61 22 b7 bd
       0.13168393 0.15701118 -0.066725306 -0.08942104
000330 58 5b fa 3c 73 4e c9 3d e6 96 38 3d 99 da 1b bd
       0.030561134 0.09829416 0.045065783 -0.038050268
000340 01 d6 ed bd be e5 1f 3e 85 26 f2 bd c6 a7 34 be
       -0.11613084 0.15614983 -0.11823753 -0.17642125
000350 f3 4a 95 bd 42 1f 15 3d ca fa 8a 3d 5a 94 90 3d
       -0.07289686 0.036406763 0.067861155 0.07059546
000360 51 9b d8 bd ed 80 8f bd 64 45 a6 bd 06 12 b5 bd
       -0.10576499 -0.070070125 -0.08118704 -0.08841328
000370 d1 77 1d be 4b 14 19 3d ed 7a 59 bd 3d f2 33 be
       -0.15377738 0.03737287 -0.053095747 -0.17572875
000380 69 55 da bd 23 8d e0 bd ab 4a a1 bd b0 0a e7 bd
       -0.10660822 -0.1096442 -0.0787557 -0.11281335
000390 e2 af 01 bd 02 ff 85 3d 5a 4e 17 be c5 1f 80 bc
       -0.031661876 0.065427795 -0.14775982 -0.015640149
0003a0 4c 37 57 bd 62 2a bf bd 92 0d 26 bd be 79 9e bd
       -0.05254297 -0.09334256 -0.040540285 -0.07738064
0003b0 b1 53 c0 3b 44 f4 06 be 03 d1 0d 3d 7b a6 2b 3e
       0.005869352 -0.13179117 0.034623157 0.16762726
0003c0 ee e9 1a 3e 96 a5 a7 bd 1d 80 66 3d 28 b6 30 be
       0.151283 -0.0818588 0.056274522 -0.17256987
0003d0 06 68 1d 3e 50 50 3a be 9a 11 27 be 2f d1 27 be
       0.15371713 -0.181947 -0.16315308 -0.16388391
0003e0 0e 9e 2d be 2c 8e ca 3c c2 bf 45 bd 5f fd 32 3d
       -0.16954824 0.024725996 -0.048278578 0.043698665
0003f0 78 15 39 bc 52 83 80 bb 61 16 87 bd 09 d7 dd bd
       -0.011296622 -0.0039219046 -0.06596065 -0.1083203

model.encoder.mlp_edge_list.0._model.2.bias f4 [30]
000000 3e 97 35 3d c1 71 7a bc 13 87 a3 3d fa 9c 03 be
       0.04433369 -0.01528591 0.07984748 -0.1285285
000010 e0 6d 9f bd c4 0c 0c 3e 53 a7 e7 bd f5 73 b7 3d
       -0.07784629 0.13676745 -0.113112114 0.08957664
000020 35 fc 2c 3e 5c f4 2a be 03 d0 a3 bd 1c 8b 1f 3e
       0.16893084 -0.16694778 -0.079986595 0.1558041
000030 eb df 34 bc 6d a1 13 3d 24 dc d4 3c ba 16 9a 3d
       -0.011039714 0.03604262 0.025983877 0.07523866
000040 45 10 9a bd 19 2b c2 3c a1 b3 fe 3d 81 5a 7c bc
       -0.075226344 0.023702191 0.12436605 -0.015402437
000050 1e 86 2b be a1 3e 81 3d b1 e8 3e bd 6c c4 1d bd
       -0.1675038 0.06310774 -0.04660863 -0.0385174
000060 1d 02 c3 3d 0b 0f 03 3d e5 32 e2 bd 9d 8c ac bd
       0.095218875 0.031996768 -0.110448636 -0.08425257
000070 52 5a e3 bc e1 c2 38 bd
       -0.027753029 -0.045107726

model.encoder.mlp_node_list.0._model.0.weight f4 [30, 30]
000000 69 50 1e bd 79 92 ff bd 91 6f 07 3e 3c eb c1 3d
       -0.038650904 -0.12479109 0.13226153 0.094686955
000010 7d 94 13 3d c3 52 29 3d be 17 af 3c 19 cb 0b 3e
       0.03603028 0.041338693 0.021373626 0.13651694
000020 e7 37 29 3d ca d5 e3 3c 22 8b cd bd b8 77 79 3d
       0.04131308 0.027811904 -0.10036303 0.06090519
000030 f1 e7 2e be e1 da 6b 3d 2b 0d 22 be 68 c0 9a bd
       -0.17080666 0.057581786 -0.15825336 -0.0755623
000040 0d 67 c5 3d da b4 de bd 37 de 14 3e 0e 98 ce bd
       0.09638796 -0.108743384 0.14537893 -0.10087596
000050 3e 15 31 3e 02 7d 66 3d 4a 09 a2 bd 7f 0a e4 3d
       0.1729326 0.05627156 -0.07911928 0.111348145
000060 1c 91 25 be a9 de ec bd 70 42 ea bd 12 e3 c4 3c
       -0.16168636 -0.115659066 -0.11438453 0.024034057
000070 da ef 92 3c 5b cd 20 be b8 67 34 3e 50 f6 36 b9
       0.017936636 -0.15703337 0.1761769 -0.00017448631
000080 f1 aa c7 bd c1 e6 8e 3b c1 80 a0 bd 92 51 4e 3d
       -0.09749401 0.004361004 -0.07837058 0.05037076
000090 0e 5c 87 3d e9 20 54 bd 0a 63 2e 3c 08 7b de 3d
       0.06609355 -0.051789198 0.01064373 0.1086331
0000a0 3a 34 f3 bd 79 c1 26 bd 13 a5 dc bc 8c 62 f7 bd
       -0.11875196 -0.040711854 -0.026934182 -0.12079343
0000b0 fd a1 73 3c 2b e0 db 3b 7b 02 17 be 01 68 19 3d
       0.014870164 0.0067100725 -0.1474704 0.0374527
0000c0 75 71 32 3e a4 e1 c6 3d f5 d2 ca bd 1d 22 2b 3e
       0.17426093 0.09711006 -0.09903518 0.16712232
0000d0 2d 83 00 be 2a 1d be bd 12 ee a4 3d 31 bb 14 3e
       -0.1255004 -0.09282906 0.08053221 0.14524533
0000e0 d3 68 32 3e 79 f4 20 3e 9c e4 cd bd 3d 1f 2b 3d
       0.174228 0.15718259 -0.100533694 0.041777838
0000f0 d9 c8 ea bd 81 1d 84 3b d9 e4 1a 3e 73 1c b8 3d
       -0.1146409 0.0040318375 0.15126361 0.08989801
000100 58 a1 2c be e4 eb a0 bd 0f be 1d be a3 23 b0 3d
       -0.16858423 -0.078574926 -0.15404533 0.08600547
000110 72 dd bd bc 4a ab 08 be 6d f6 6e bd bc 68 75 3d
       -0.023176882 -0.13346592 -0.05834048 0.059914336
000120 6b 77 8a 3c 12 6c 2f 3e f0 da 1e bb ad 3b 6b 3d
       0.016902646 0.1713107 -0.0024239384 0.057429958
000130 3b 89 62 bd 02 79 b2 3c 2f 51 d6 3b 78 97 20 3e
       -0.055306654 0.021786217 0.0065404396 0.1568278
000140 4c ac 9c 3d e5 16 d5 bd 01 1f 26 be 8f e0 31 be
       0.076500505 -0.104047574 -0.16222765 -0.17370819
000150 08 ca 87 bd cf 55 c1 3c c0 e1 2f 3e 47 f4 92 bc
       -0.06630331 0.023600487 0.1717596 -0.017938746
000160 34 32 92 3d 11 08 be 3d 56 35 0f be 23 a7 1a be
       0.07138482 0.09278882 -0.1398519 -0.1510282
000170 64 ae 8d 3d a8 48 ae 3d 47 1b ae bd 51 61 ea 3c
       0.06918028 0.08509952 -0.085012965 0.028610857
000180 f6 0c 37 be 54 d1 16 3b 05 4f 37 3d c0 83 e2 3a
       -0.17876038 0.0023012953 0.044753093 0.0017281696
000190 6e 67 ed bc 1a a2 9b 3d 42 8d 4d bd 39 2b 0b 3e
       -0.028979983 0.07599278 -0.050183542 0.13590707
0001a0 da 07 21 be 82 b0 d5 bd b6 13 1c be 5c 15 29 be
       -0.15725651 -0.10434057 -0.15241894 -0.16512054
0001b0 b6 99 0a 3e ee 10 39 bd e3 db 12 be 1a 1b 1b 3d
       0.13535199 -0.04518216 -0.14341693 0.037867643
0001c0 d0 92 0d be 47 a1 1a 3c 44 c0 b1 3d e0 21 1e bd
       -0.13825536 0.009437866 0.0867925 -0.038606524
0001d0 1a 38 c0 3d a2 7c 19 3d 60 05 16 be 69 2f 13 3d
       0.093857005 0.037472375 -0.14650488 0.035933886
0001e0 03 0a f1 3d 3f 5c 2d bd 40 5a 8d 3c 4f ce be 3c
       0.11769488 -0.0423243 0.017254949 0.023291735
0001f0 27 9d 80 3c 5d 65 42 3d b2 00 33 be aa d8 0d 3e
       0.015699936 0.04745995 -0.17480734 0.13852182
000200 6e 14 a3 3d ca b2 b8 3c f9 12 08 3d 24 c6 16 be
       0.07962881 0.02254619 0.03322122 -0.14724022
000210 f4 84 55 bd 8f 1c 02 bc c2 c3 31 3d dc 1c cd bd
       -0.052128747 -0.007941379 0.04339958 -0.1001527
000220 dc b1 9e 3c dc 15 68 bd d8 14 08 3e cb 79 20 be
       0.01937192 -0.05666147 0.13289201 -0.1567146
000230 24 58 9c 3c c6 52 fd 3d 92 34 11 be 21 78 ab bb
       0.019084997 0.123693034 -0.1418021 -0.0052328263
000240 2e c8 ac 3d 06 e2 96 3d 73 e3 af 3c 0b 26 97 3d
       0.08436619 0.07367329 0.02147076 0.07380303
000250 8f 53 02 be 7e b6 1b 3e 5a 6e 85 3b 10 b3 f1 3d
       -0.12727188 0.15206334 0.004071993 0.118017316
000260 fb 6e 25 3d 0f 63 a6 bc 15 29 a0 3d 37 7a 31 3e
       0.040389042 -0.020310907 0.07820336 0.17331778
000270 a0 6a 38 3e 96 5e 1d be 96 6b 35 3c 03 4e 06 be
       0.18009424 -0.15368113 0.011073014 -0.13115697
000280 f4 db d9 3d f3 36 06 3e af 47 03 be 44 e2 2c bc
       0.10637656 0.13106899 -0.12820314 -0.010551993
000290 99 5e 01 3e 3e 45 f7 3d 06 91 0c be 47 0e fb 3d
       0.12633742 0.12073754 -0.13727197 0.122585826
0002a0 f5 64 04 bd 38 00 1f be 40 f7 14 3d 01 31 ae 3d
       -0.032322843 -0.15527427 0.03636861 0.085054405
0002b0 29 3e e0 3d 36 3b fe bd b1 68 07 be 67 3a fb bd
       0.10949356 -0.12413637 -0.1322353 -0.12266999
0002c0 85 e6 d3 3d 5f 65 23 be 00 cb c9 ba 90 c1 5b bd
       0.103467025 -0.15956639 -0.0015395582 -0.053651392
0002d0 6e 40 a3 3d 51 dc 12 3d fe d0 bc bd b1 9e 02 3d
       0.07971273 0.03585464 -0.092195496 0.03188962
0002e0 ae 0c 2c 3e b7 3f f6 3c 33 4a b9 bd f6 4b c8 3b
       0.16801712 0.030059678 -0.090473555 0.006112571
0002f0 21 7c 2b be 82 e6 ef bd 22 e8 0a bd fb 00 e9 bd
       -0.1674657 -0.11713888 -0.033912785 -0.1137714
000300 2e 51 1e 3e 09 29 11 3d 2c ce 10 3e 43 49 2a bd
       0.15460655 0.035439525 0.14141148 -0.041573774
000310 e8 01 d0 bc 93 a2 3c 3d 8d 5b 5e bd b2 e9 7e bd
       -0.025391534 0.04605348 -0.05428653 -0.062234588
000320 33 66 37 be ba d7 0c 3e 59 33 29 3e f9 1b 39 be
       -0.1791008 0.13754168 0.16523494 -0.18077077
000330 82 6c 77 bd 47 69 0d be c8 c7 97 bd e2 54 0e 3e
       -0.060406215 -0.13809691 -0.07411152 0.13899568
000340 69 03 c8 3d c3 19 68 bc cc b2 9f 3d a6 54 5f 3d
       0.097662754 -0.014166298 0.07797775 0.054524086
000350 2a 33 cc 3d e5 3c 16 be 61 28 67 3d 91 10 31 be
       0.09970696 -0.14671667 0.056434993 -0.17291476
000360 b2 e8 f5 bd fd 56 8b bd 55 b8 91 bc 65 6e 30 be
       -0.12007274 -0.06803701 -0.017788092 -0.17229612
000370 d4 e3 94 3b 38 ca ee 3c 99 64 94 bd 1f 8f 72 3d
       0.004543761 0.02914916 -0.0724575 0.059218522
000380 d1 5d 23 3e 80 7a ff bc 32 23 c7 bd 64 9c 25 be
       0.15953757 -0.031186342 -0.0972351 -0.1617294
000390 09 84 08 be 56 ce ce bd 34 36 0a be ec 00 93 bd
       -0.13331617 -0.10097949 -0.1349724 -0.0717791
0003a0 7f fb cd 3d b8 02 6a 3d 06 82 28 3e 5f 9e 39 3e
       0.10057735 0.0571315 0.1645585 0.1812682
0003b0 f3 a5 86 bd 59 6e 92 bd 02 ac cc 3c a5 de 14 be
       -0.06574621 -0.071499534 0.024984363 -0.14538057
0003c0 b7 60 cb 3d 7e 97 06 bd 2c 8b 1c be f8 25 0d be
       0.09930556 -0.032859318 -0.15287465 -0.13784015
0003d0 4f d3 00 be 7f 8a 4d 3d 9e 50 0f 3e ca 1d 14 3e
       -0.12580608 0.05018091 0.13995597 0.14464489
0003e0 c2 ea 4d bd 61 30 d9 bd 86 f4 a5 bd 2f 6d ff bd
       -0.05027271 -0.10604931 -0.0810328 -0.12471997
0003f0 22 ce 40 bd 0b d9 28 be e1 da c7 3d 4a f6 2f be
       -0.047071584 -0.16489045 0.09758545 -0.17183796

model.encoder.mlp_node_list.0._model.0.bias f4 [30]
000000 db c9 8c bd 51 29 0c 3e 05 78 91 3c b1 08 81 3d
       -0.068744384 0.13687636 0.017757425 0.06300486
000010 c5 36 23 be 6d 1e a0 bd ad 42 98 bb 53 f2 9c bc
       -0.15938862 -0.07818303 -0.0046466202 -0.019158518
000020 4d af ee 3d 8d ae 61 bd 6f 08 1c 3e 8c a2 10 bd
       0.1165453 -0.055098105 0.15237592 -0.035311267
000030 c1 6e 91 3d 4b 9f 03 be 83 dc fd 3c 31 45 36 be
       0.07101203 -0.12853734 0.030988937 -0.17799832
000040 f5 67 20 be 3b 4e ef bd c5 5b 51 3d ad d8 67 3c
       -0.15664656 -0.11684843 0.05111291 0.014150781
000050 67 c1 90 3c 4b 9b a3 bc f6 16 1d 3e 5f 24 37 3e
       0.017670346 -0.01997151 0.1534079 0.17884968
000060 cc cb 9e 3d 7b ad 14 3e fc d5 13 bc 40 76 89 bd
       0.07753715 0.14519303 -0.009023186 -0.067120075
000070 46 62 11 3d 48 dc f5 3d
       0.03549411 0.12004906
